offpolicy/scripts/offpolicy/models2025-09-13-19-08-25/qmix_models/mixer.pt (torch, 48328 bytes, 13 tensors)

hyper_w1.0.weight f4 [64, 20]
0	0xbcf11ab0	-0.02943167
1	0xbcd13847	-0.02553953
2	0xbcf89026	-0.030342173
3	0xbe23f248	-0.16010392
4	0xbe351291	-0.17682864
5	0xbe404064	-0.18774563
6	0xbd9b4c8b	-0.07582959
7	0xbdca21ea	-0.0986975
8	0x3d9930d5	0.07480017
9	0x3c888136	0.016663175
10	0xbd819154	-0.06326547
11	0x3e5396c5	0.20662983
12	0xbe58189a	-0.21103135
13	0x3e3147ab	0.17312495
14	0x3dd7f6cf	0.10545122
15	0x3e0e7549	0.13911928
16	0x3dcc32e1	0.09970642
17	0x3c007c8c	0.007842194
18	0xbe473638	-0.19454277
19	0xbda33ad1	-0.07970203
20	0x3dd61915	0.10454003
21	0xbe2b4133	-0.1672409
22	0xbda1ab8d	-0.07894049
23	0x3e607183	0.21918301
24	0x3d7a303d	0.06108116
25	0xbe006385	-0.12537964
26	0xbd2d6349	-0.042331014
27	0x3dfa6e31	0.122280486
28	0xbdead496	-0.11466329
29	0x3e028422	0.12745717
30	0xbd85a263	-0.065251134
31	0xbe22bbf0	-0.15892005
32	0xbdb75b42	-0.08952953
33	0x3db6bc82	0.08922674
34	0xbe1dc33f	-0.15406512
35	0x3d055644	0.032552972
36	0x3d777c3a	0.060421206
37	0xbe0d4a5f	-0.13797902
38	0xbe044fe7	-0.12921105
39	0x3cae7a59	0.021298574
40	0x3dcd63c4	0.100287944
41	0x3da26752	0.07929863
42	0xbe80dd07	-0.2516863
43	0xbdfcbeb6	-0.12341063
44	0xbc85ec28	-0.01634796
45	0x3e862af2	0.2620464
46	0xbeadcaa9	-0.3394368
47	0xbe12d9f8	-0.14340961
48	0xbd346135	-0.044038016
49	0x3dad96a2	0.084759966
50	0x3b84d1aa	0.004053314
51	0xbc93bd63	-0.018034643
52	0xbdc0f3bc	-0.09421489
53	0xbdfeee00	-0.12447739
54	0xbd4c9e32	-0.049955554
55	0x3c0b67b6	0.008508613
56	0xbe20abfd	-0.15690608
57	0x3ddc8e98	0.10769385
58	0x3c38bd21	0.011275561
59	0x3d667f1b	0.05627356
60	0xbdb6cb32	-0.08925475
61	0x3e79f467	0.24409638
62	0x3d5deba9	0.05417982
63	0x3e6b0594	0.22951347
64	0x3db5edb7	0.08883231
65	0x3dc6f212	0.0971414
66	0xbe478506	-0.19484338
67	0xbc727e88	-0.014800675
68	0xbd664f5d	-0.05622803
69	0x3d6bf88e	0.057610087
70	0xbe768eb6	-0.24077877
71	0x3dc53891	0.0962993
72	0x3d555e11	0.05209166
73	0x3e26c4d4	0.16286021
74	0x3bf5372a	0.0074833827
75	0xbbe3b07a	-0.006948528
76	0x3e020eaa	0.12700906
77	0x3d0be041	0.034149412
78	0x3e1e9e08	0.15489972
79	0xbda74785	-0.08167938
80	0x3d0cf2f5	0.03441139
81	0xb9c17c00	-0.00036904216
82	0x3df87e80	0.12133503
83	0xba274270	-0.00063804444
84	0xbe8a7b18	-0.27047038
85	0xbcc16d80	-0.023611784
86	0xbdb420ce	-0.087953195
87	0xbc9b437a	-0.018953074
88	0xbb68f440	-0.0035545975
89	0xbcddb9a1	-0.027066054
90	0x3ce61dc5	0.028090367
91	0xbe527622	-0.20552877
92	0xbd300a31	-0.04297847
93	0xbddef9d9	-0.108874984
94	0x3d378db5	0.044812877
95	0xbd4763e3	-0.048679244
96	0xbd860436	-0.06543772
97	0xbc8996bb	-0.016795507
98	0xbdaddad6	-0.08489005
99	0x3cef97d8	0.02924721
100	0x3d966cfd	0.073450066
101	0xbd8fd126	-0.07022314
102	0xbceff921	-0.029293599
103	0x3cfc37cc	0.030788325
104	0x3e3e5f41	0.18591024
105	0xbdeb8e0e	-0.11501704
106	0x3ccc1e96	0.024916928
107	0xbe8c2cc0	-0.27377892
108	0xbd9cfa16	-0.076648876
109	0x3e2968d5	0.16543896
110	0x3d08bb41	0.033381704
111	0x3df93965	0.1216915
112	0x3de10040	0.10986376
113	0xbe44fed3	-0.19237833
114	0x3da7ba54	0.08189836
115	0x3d22c952	0.039742775
116	0xbe87c8d8	-0.2652042
117	0xbdb9cb64	-0.09071997
118	0xbd8ef93d	-0.06981132
119	0xbdfb0ed5	-0.12258688
120	0x3c3fc30f	0.01170422
121	0x3d1eeedb	0.03880201
122	0x3de98cce	0.114038095
123	0x3db09e25	0.08623914
124	0x3e777546	0.2416583
125	0xbe843f45	-0.2582952
126	0xbe22edfc	-0.15911096
127	0x3d0c4774	0.03424783
128	0x3dd6078b	0.104506575
129	0x3e5801fd	0.21094508
130	0x3e7ebea5	0.24877413
131	0x3da67267	0.08127289
132	0xbde91454	-0.113808304
133	0xbe12f5e4	-0.14351612
134	0x3beebf35	0.0072859772
135	0x3daac788	0.08338839
136	0xbd1a3a12	-0.037653036
137	0x3a5f0e0e	0.0008508869
138	0xbc1c40bb	-0.009536917
139	0x3df26abe	0.11836766
140	0x3d41aecb	0.047285836
141	0x3d5e4366	0.054263495
142	0x3ddcf9c8	0.107898295
143	0x3c874d4e	0.016516354
144	0x3e003907	0.12521754
145	0xbe0f6598	-0.14003599
146	0x3cec4c49	0.02884497
147	0x3dcde5ef	0.10053622
148	0xbc8d9690	-0.017283708
149	0xbd44c328	-0.048037678
150	0x3d7443ab	0.059634846
151	0xbbe40e7f	-0.006959736
152	0xbdbbcf49	-0.09170396
153	0xbd839674	-0.06425181
154	0x3e0e1b14	0.13877517
155	0xbddcdb02	-0.1078396
156	0x3e279ebe	0.16369149
157	0x3e8d0b93	0.27547893
158	0xbe29c8c8	-0.16580498
159	0xbdc69722	-0.09696795
160	0xbdb49783	-0.08817961
161	0x3cfacaac	0.03061422
162	0xbcd46993	-0.025929248
163	0x3e22cea1	0.15899135
164	0xbd02ea13	-0.03196151
165	0xbe2ef291	-0.17084719
166	0x3e6fcd60	0.23418188
167	0xbd7b6cb8	-0.06138298
168	0xbdf963ea	-0.1217726
169	0x3cc4eab3	0.024037695
170	0xbdcbcdf0	-0.09951389
171	0x3e377527	0.17915784
172	0x3e09e05f	0.13464497
173	0x3e295ab5	0.16538508
174	0xbe11fc11	-0.14256312
175	0x3e39fbe5	0.18162496
176	0x3e1d1cc0	0.15342999
177	0x3e54cadf	0.20780514
178	0x3e1bc9ce	0.15213701
179	0xbe2318ce	-0.15927431
180	0x3db97020	0.09054589
181	0xbe1f2b3c	-0.15543836
182	0xbe128a97	-0.1431068
183	0xbe1e2c15	-0.15446503
184	0x3ca98f00	0.02069807
185	0x3d23cda2	0.03999103
186	0x3c5c9ef5	0.013465633
187	0xbcd0f4e0	-0.02550739
188	0xbe15ccde	-0.14628932
189	0xbc31e904	-0.010858778
190	0x3de924f9	0.11384005
191	0x3dbe8d1b	0.093042575
192	0xbe3abe7a	-0.18236724
193	0x3e144481	0.14479257
194	0xbd277f9f	-0.040893193
195	0xbd83ec6a	-0.06441577
196	0x3ad8cea8	0.001654108
197	0xbe44006c	-0.19140786
198	0xbd27f0d9	-0.041001175
199	0xbca6f70c	-0.020381473
200	0x3caf98bc	0.021435134
201	0xbc9d8a57	-0.019231005
202	0x3e4e434e	0.20142862
203	0xbe02cea3	-0.12774138
204	0xbcf3f055	-0.029777685
205	0x3da863a6	0.082221314
206	0xbe12991e	-0.14316222
207	0xbde2a06f	-0.110657565
208	0x3d0780e8	0.03308192
209	0x3dea39fc	0.11436841
210	0x3db3a3f1	0.08771504
211	0xba312448	-0.00067574205
212	0x3e68ac6d	0.22722025
213	0xbc25497e	-0.010088323
214	0xbe449a37	-0.19199453
215	0xbe81696b	-0.2527574
216	0x3db5e109	0.08880813
217	0xbdc3e237	-0.095646314
218	0x3cdcd97d	0.026959175
219	0xbe2d917e	-0.16950032
220	0x3d9400c4	0.072267085
221	0x3e2b8184	0.16748625
222	0xbac82e6a	-0.0015272622
223	0xbd954a3c	-0.0728955
224	0x3d603108	0.05473426
225	0xbdb1195c	-0.08647415
226	0x3c27cdee	0.010241969
227	0xbe13bd29	-0.14427628
228	0x3e07ff7f	0.13281058
229	0x3d1201a0	0.03564608
230	0xbd0d37ed	-0.034477163
231	0x3c1ff360	0.009762615
232	0x3db6634b	0.089056574
233	0xbdecbf47	-0.11559921
234	0x3d9d0aba	0.076680616
235	0xbc2527e4	-0.010080311
236	0x3d55e85a	0.05222354
237	0x3e1c1892	0.15243748
238	0x3e6362ef	0.22205709
239	0x3c1b0fbf	0.009464203
240	0x3d618972	0.05506272
241	0x3de62913	0.11238303
242	0xbd110eef	-0.035414632
243	0x3e919f1d	0.28441706
244	0xbdc90744	-0.09815839
245	0xbdc060d8	-0.093934715
246	0xbcd99623	-0.026560849
247	0x3dbfd37d	0.0936651
248	0xbc00a5d3	-0.007852036
249	0x3e77a473	0.24183826
250	0x3d030b66	0.031993292
251	0x3e0ed884	0.13949782
252	0x3d525285	0.051348228
253	0xbd8ae3ca	-0.067817286
254	0x3e99f738	0.30071425
255	0xbdd8e3ac	-0.105903

hyper_w1.0.bias f4 [64]
0	0xba875c9f	-0.0010327286
1	0x00000000	0.0
2	0x00000000	0.0
3	0x3c5fbfdc	0.013656583
4	0x00000000	0.0
5	0x00000000	0.0
6	0x3c7fd3d2	0.015614467
7	0x3c633611	0.013867871
8	0x3c6c0783	0.014406088
9	0x00000000	0.0
10	0x00000000	0.0
11	0x3c222ea8	0.009898819
12	0x3c74b250	0.014935091
13	0xbbec458d	-0.0072104395
14	0x3a43dad3	0.0007471267
15	0xbb827e72	-0.0039823586
16	0xbbe24383	-0.0069050207
17	0x00000000	0.0
18	0xbc3c90dd	-0.0115091475
19	0x3c7a16b3	0.015264201
20	0x3c6817e1	0.014165849
21	0xbc940037	-0.018066509
22	0x3c1fdfec	0.009757977
23	0x3c75e112	0.015007274
24	0x3c87976d	0.016551698
25	0x3c7cccab	0.015429656
26	0x3c63b0e6	0.013897156
27	0x00000000	0.0
28	0x3c7aca89	0.015307077
29	0x00000000	0.0
30	0xbb4070b9	-0.0029364063
31	0x3c5c3de4	0.01344249
32	0x3c781eab	0.015144031
33	0x3c7517c3	0.0149592785
34	0x3c5ddfe4	0.013542149
35	0x00000000	0.0
36	0x3c762d5f	0.015025466
37	0x00000000	0.0
38	0x00000000	0.0
39	0xbc32179d	-0.010869888
40	0x00000000	0.0
41	0x00000000	0.0
42	0x00000000	0.0
43	0x00000000	0.0
44	0x3c7638f0	0.015028223
45	0x3c776c3d	0.01510149
46	0x00000000	0.0
47	0x3c6f66f6	0.01461195
48	0xbc34757e	-0.01101434
49	0x3c7cb3a7	0.015423692
50	0x3c80f1c4	0.015740283
51	0x3b4acf01	0.0030946138
52	0x00000000	0.0
53	0x3c220613	0.0098891435
54	0x00000000	0.0
55	0x3c83cc72	0.016088698
56	0xbc31467c	-0.010820027
57	0x00000000	0.0
58	0x3c5e245e	0.013558475
59	0x3c19ae46	0.009379929
60	0x00000000	0.0
61	0x3c684df8	0.014178745
62	0xba14ad16	-0.0005671544
63	0x00000000	0.0

hyper_w1.2.weight f4 [64, 64]
0	0x3deb8dd1	0.11501659
1	0xbbb143f5	-0.0054097124
2	0xbe0e1d2c	-0.13878316
3	0xbe1fc23c	-0.15601438
4	0x3d1e92cd	0.03871422
5	0x3dda4fc0	0.10659742
6	0xbd5b983e	-0.053611986
7	0x3dc55838	0.09635967
8	0x3acb9aa7	0.0015533761
9	0x3dbbced7	0.09170311
10	0x3c87e358	0.016587898
11	0x3e22b4b6	0.15889248
12	0xbd91306d	-0.070893146
13	0x3e53a8c1	0.20669843
14	0xbd9dbfc7	-0.07702594
15	0xbe454845	-0.1926585
16	0xbe5d11b7	-0.21588789
17	0xbd665de4	-0.056241885
18	0xbda5dfed	-0.08099351
19	0xbe6989c0	-0.22806454
20	0x3d72df5d	0.059295047
21	0xbd7c7b8c	-0.06164126
22	0x3e0badbc	0.13640493
23	0x3de2710a	0.11056717
24	0xbdc4bce3	-0.0960634
25	0xbd9495f7	-0.07255166
26	0xbc3e3d9d	-0.011611369
27	0x3e257cd5	0.16160901
28	0x3d412e08	0.04716304
29	0x3c7dfaac	0.015501659
30	0xbdb040c8	-0.08606106
31	0x3d69c21a	0.057069875
32	0xbbb5b11f	-0.005544796
33	0x3d0fd27d	0.035112847
34	0xbb9284c4	-0.0044713933
35	0x3b4c4980	0.003117174
36	0xbcd24bf2	-0.02567098
37	0x3e0c9425	0.13728388
38	0xbb90f160	-0.0044233054
39	0xbc825704	-0.015910633
40	0x3eaa309b	0.33240208
41	0x3cef3ec4	0.029204734
42	0xbe0aad15	-0.13542588
43	0x3e5fbf84	0.21850401
44	0x3ce1400b	0.027496358
45	0x3e7924ba	0.24330416
46	0xbdca5291	-0.098790295
47	0xbdbb35e7	-0.091411404
48	0xbe81d474	-0.253574
49	0xbd6db8f8	-0.058037728
50	0xbcdc0953	-0.026859915
51	0x3e3eb87f	0.18625067
52	0x3e7370fe	0.23773572
53	0xbdd06694	-0.10175815
54	0xbea8f7e0	-0.33001614
55	0x3d6c51d8	0.05769524
56	0x3d4c4f7e	0.049880497
57	0x3d62f326	0.055407666
58	0x3d4e0509	0.05029777
59	0xbcd74b8e	-0.026281144
60	0x3d7378bd	0.059441317
61	0xbceff23a	-0.029290307
62	0xbe18f3bf	-0.14936732
63	0x3c834be8	0.016027406
64	0xbc82060c	-0.015872024
65	0x3d8094d5	0.062783875
66	0x3e321b3d	0.17393203
67	0x3b91a4e5	0.004444706
68	0x3e6f25fa	0.2335433
69	0xbe61de0e	-0.22057363
70	0xbd909d86	-0.07061295
71	0x3c069602	0.008214476
72	0x3d0d28bf	0.034462687
73	0x3e1648d6	0.14676222
74	0x3e05e3c5	0.13075168
75	0x3e272cbb	0.16325657
76	0x3bd7785e	0.006575628
77	0x3d832035	0.064026274
78	0xbda9246c	-0.082589
79	0x3e2758d2	0.16342476
80	0xbd5fcbe9	-0.054637823
81	0xbb84e061	-0.0040550684
82	0xbda4e34f	-0.08051168
83	0x3c323fc3	0.01087946
84	0xbdb29f3b	-0.08721777
85	0x3e4977af	0.19674562
86	0xbd8c30c5	-0.068452395
87	0xbdc2e901	-0.09517098
88	0x3df00328	0.11719352
89	0x3dbdfe1b	0.092769824
90	0x3e2074ef	0.15669607
91	0x3da46056	0.08026187
92	0x3c80ab3c	0.01570665
93	0x3e803f25	0.25048175
94	0xbd8f0a53	-0.06984391
95	0x3e869ccf	0.2629151
96	0x3e028379	0.12745465
97	0x3dafc09a	0.08581658
98	0xbd658201	-0.056032185
99	0x3d5e4853	0.054268192
100	0xbd87574b	-0.06608447
101	0x3c793f0c	0.015212785
102	0x3de807b1	0.11329592
103	0x3de3c986	0.11122422
104	0xbccb5524	-0.024820872
105	0xbdfaa144	-0.1223779
106	0x3d33a16f	0.043855127
107	0xbe48b051	-0.1959851
108	0x3e022d16	0.12712511
109	0x3d903c87	0.07042795
110	0x3d81361f	0.06309151
111	0x3dc6a4f4	0.09699431
112	0xbe2d499c	-0.16922611
113	0x3dbc228e	0.09186278
114	0xbdf59a45	-0.11992315
115	0x3de801c9	0.113284655
116	0x3e96fefd	0.29491416
117	0xbc01f887	-0.007932789
118	0x3e00b968	0.12570727
119	0xbcd23846	-0.025661599
120	0xbe24d5dd	-0.16097207
121	0x3caf7d3b	0.02142202
122	0x3dcc1895	0.09965626
123	0x3e251844	0.16122538
124	0xbea5df56	-0.32396954
125	0x3b9e94b7	0.0048395055
126	0x3d97adaa	0.07406171
127	0xbe2c1d3b	-0.16808026
128	0xbcacb1e9	-0.021080928
129	0x3e518e9b	0.20464556
130	0x3d55886b	0.05213205
131	0xbdc733d1	-0.0972668
132	0x3d5c2524	0.053746358
133	0x3df3486a	0.11879046
134	0xbd38c91b	-0.045113664
135	0x3e833595	0.25626817
136	0x3b8fe2de	0.0043910583
137	0xbe1442b3	-0.14478569
138	0x3d985535	0.07438127
139	0xbdfeb0b7	-0.124360494
140	0xbe11a429	-0.14222778
141	0xbbf02274	-0.007328326
142	0x3de46036	0.11151163
143	0xbdb4441e	-0.08802055
144	0xbd56228d	-0.052279044
145	0xbd5ac375	-0.05340906
146	0x3eb43731	0.35198358
147	0xbde6a0e3	-0.112611555
148	0x3e039090	0.12848115
149	0x3e8fcd1b	0.2808617
150	0xbe019d12	-0.12657574
151	0xbd871340	-0.065954685
152	0xbd0a6e8d	-0.033796836
153	0xbca6030a	-0.020265121
154	0xbda596d7	-0.08085411
155	0x3b0d39d6	0.0021549365
156	0xbdf7deca	-0.121030405
157	0xbe3e4a70	-0.18583083
158	0x3e73ba4e	0.23801538
159	0x3dedbc28	0.116081536
160	0x3d6205c4	0.05518128
161	0x3d941642	0.07230808
162	0xbe53d3aa	-0.20686212
163	0x3da242cf	0.07922899
164	0x3dad156f	0.08451354
165	0xbd8cc241	-0.068729885
166	0x3c43878a	0.0119341705
167	0x3caa87df	0.020816742
168	0xbc4d98e7	-0.012548662
169	0xbe7ca1b0	-0.24671054
170	0x3bdf79dc	0.0068199467
171	0x3c974428	0.018465117
172	0xbe50ee04	-0.20403296
173	0x3d053c1d	0.03252803
174	0x3da90884	0.08253577
175	0x3c9efa71	0.01940653
176	0xbe983fd8	-0.2973621
177	0x3e13b0dd	0.14422937
178	0xbcd1051b	-0.02551513
179	0xbd24e2c6	-0.04025533
180	0xbd98f27c	-0.07468125
181	0xbe0d4c6d	-0.13798685
182	0x3daec010	0.08532727
183	0x3e02e828	0.12783873
184	0x3da4c5c0	0.0804553
185	0xbdbd6147	-0.0924707
186	0xbde2c4c9	-0.1107269
187	0x3d937ad9	0.07201166
188	0x3ddd15c0	0.10795164
189	0x3dbc549d	0.09195826
190	0x3d99554a	0.07486971
191	0xbe1d1fad	-0.15344115
192	0x3d9cad2a	0.07650216
193	0xbc1b00d7	-0.009460649
194	0x3d962064	0.07330397
195	0x3c70187f	0.014654278
196	0xbd8a9579	-0.06766791
197	0xbddde51b	-0.10834714
198	0x3d995739	0.074873395
199	0x3d50e73c	0.051001772
200	0x3d34a239	0.04410002
201	0x3e0eb3c1	0.13935758
202	0x3e4edeab	0.20202129
203	0x3e27d9a7	0.16391622
204	0x3d930548	0.07178742
205	0x3d862c3d	0.065514065
206	0x3de9d344	0.11417249
207	0xbdc69f50	-0.09698355
208	0x3e45851d	0.1928906
209	0x3df33b86	0.118765876
210	0x3daa0903	0.083025
211	0x3e780971	0.24222352
212	0xbe385232	-0.18000105
213	0xbd79081f	-0.06079876
214	0x3e1e3bec	0.15452546
215	0x3dc15923	0.094408296
216	0x3dd2d2bf	0.10294103
217	0x3e85948e	0.260899
218	0x3e25fe33	0.1621025
219	0x3d8eb63a	0.06968351
220	0xbe08e944	-0.13370234
221	0xbe5a0b44	-0.2129336
222	0xbce97a4b	-0.028500697
223	0x3de00c02	0.1093979
224	0xbd0eef83	-0.034896385
225	0x3e05e1a5	0.13074358
226	0x3e82ca7c	0.25545108
227	0xbd2a8f7c	-0.041640744
228	0x3e0f3394	0.13984519
229	0xbd96d5f8	-0.0736503
230	0xbe36f30d	-0.17866154
231	0xbbb97dc9	-0.0056607467
232	0xbe4120a5	-0.18860109
233	0xbc3c3537	-0.011487297
234	0x3e4acaa6	0.19803867
235	0x3d8d76b2	0.06907405
236	0xbda2490c	-0.07924089
237	0x3dd4f2f5	0.10397903
238	0x3e036b88	0.12833989
239	0x3c8d8c57	0.017278833
240	0x3dbf6b15	0.09346596
241	0xbb86682b	-0.0041017733
242	0xbe5e7006	-0.21722421
243	0x3de4c2f2	0.11169995
244	0x3d996029	0.07489044
245	0xbe7434e6	-0.23848304
246	0xbe46f00f	-0.19427513
247	0x3e0447eb	0.1291806
248	0x3d04b5c0	0.032399893
249	0xbe0bad3e	-0.13640305
250	0xbe0fec56	-0.14054999
251	0xbcda4410	-0.026643783
252	0x3d188cdd	0.037243713
253	0x3d64c00f	0.055847224
254	0xbe109dc5	-0.14122684
255	0xbdc83143	-0.09775021

hyper_w1.2.bias f4 [64]
0	0xbc7ddf9f	-0.01549521
1	0x3c92d217	0.017922444
2	0xbc44f0d4	-0.0120203085
3	0x3c722daa	0.014781395
4	0x3c6d7c54	0.014494974
5	0x3c6f1f6a	0.014594892
6	0xbc6c8882	-0.014436843
7	0x3c801a61	0.015637578
8	0xbc6ce010	-0.014457718
9	0xbc5efff4	-0.013610829
10	0xbc83fcc8	-0.016111746
11	0x3c5bad28	0.013407983
12	0xbc72b2c9	-0.0148131335
13	0xbc84a079	-0.0161898
14	0x3bd32bb4	0.006444419
15	0x3c7c724a	0.015408108
16	0x3c6e8d7a	0.014560098
17	0xbc6f26ee	-0.014596684
18	0x3c349990	0.01102294
19	0x3c809e20	0.0157004
20	0x3c5c43d1	0.013443903
21	0x3c5c0f90	0.013431445
22	0x3c80072b	0.015628418
23	0xbc8564bc	-0.016283385
24	0x3c82243c	0.015886419
25	0x3b8eb86d	0.0043554814
26	0xbc8290c8	-0.015938178
27	0xbc7b8f6e	-0.0153540205
28	0x3c81527f	0.015786408
29	0xbc6e2b68	-0.014536716
30	0xbc632c2c	-0.013865512
31	0xbc861724	-0.016368456
32	0xbc81394b	-0.01577439
33	0xbc969617	-0.018382115
34	0xbc80ccc1	-0.015722634
35	0xbc86c3a0	-0.016450703
36	0x3c7eb6c0	0.015546501
37	0xbc85cb27	-0.016332222
38	0x3c80c215	0.015717546
39	0x3c8e2fb5	0.017356733
40	0xbc83c84b	-0.016086718
41	0x3c7723bd	0.015084204
42	0xbc894f3f	-0.01676142
43	0xbc7ac6c2	-0.015306177
44	0x3c869004	0.016426094
45	0xbc8ab998	-0.016934201
46	0x3c09b696	0.008405348
47	0xbc842335	-0.01613007
48	0xbc857e22	-0.016295496
49	0xbc84b57d	-0.016199822
50	0xbc49c5d1	-0.0123152295
51	0xbc8e4d68	-0.017370895
52	0xbc7b0c88	-0.015322812
53	0x3c7a3575	0.015271534
54	0xbc86ed95	-0.01647071
55	0xbc8b545e	-0.017008003
56	0x3c90aa4d	0.01765933
57	0xbba1714a	-0.004926835
58	0xbc897130	-0.016777605
59	0x3c8ae8ed	0.01695677
60	0x3c85b2d5	0.016320625
61	0x3c85920a	0.016304988
62	0xbc806cea	-0.015676934
63	0xbc88dd03	-0.01670695

hyper_w2.0.weight f4 [64, 20]
0	0xbe9daaab	-0.30794272
1	0xbe1c95cf	-0.15291522
2	0x3dac7ab8	0.08421844
3	0x3e016a8b	0.12638299
4	0xbdaec6ba	-0.08533998
5	0xbe1291c4	-0.14313418
6	0x3b1670b5	0.0022955362
7	0xbc4887c7	-0.012239403
8	0xbda7255d	-0.08161423
9	0x3cef3a9d	0.029202754
10	0xbe31fd00	-0.17381668
11	0x3b1403a6	0.0022585182
12	0x3ccd9a09	0.025097864
13	0xbe2ac08f	-0.16675018
14	0x3e61de70	0.2205751
15	0x3e79d901	0.24399187
16	0xbd94d268	-0.07266694
17	0x3d684855	0.056709606
18	0xbdb7f3ec	-0.08982071
19	0xbe49cd0d	-0.19707127
20	0xbcbc42a0	-0.022980988
21	0xbd1311cc	-0.035905644
22	0x3d8588bf	0.06520223
23	0xbdf4e314	-0.11957374
24	0x3db6d278	0.089268625
25	0xbe284a9c	-0.16434711
26	0xbe45b2c9	-0.19306482
27	0xbd726224	-0.059175625
28	0xbe83ef55	-0.25768533
29	0xbb0f0a3a	-0.0021826164
30	0x3e0e10d2	0.13873604
31	0xbe122a53	-0.14273958
32	0xbd28b275	-0.041185815
33	0x3d47d15b	0.04878364
34	0x3d4b79d1	0.04967672
35	0xbd7bc383	-0.06146575
36	0x3e1354ec	0.14387864
37	0xbddb8824	-0.10719326
38	0x3e0b5eab	0.13610332
39	0xbe8ac17f	-0.2710075
40	0xbd3c1261	-0.045915965
41	0x3d8cb0a9	0.06869633
42	0x3be9975f	0.0071286405
43	0x3d0b5ce2	0.034024127
44	0x3d36e578	0.044652432
45	0x3e36ba87	0.17844592
46	0x3e00f609	0.12593855
47	0x3dccf29f	0.10007214
48	0xbdbfc4eb	-0.09363731
49	0xbe872b3b	-0.2640017
50	0xbd029d49	-0.03188828
51	0xbdb1a532	-0.08674087
52	0xbe401e58	-0.18761575
53	0x3b825b49	0.003978167
54	0x3ca4dad1	0.020123871
55	0xbdc0637c	-0.09393975
56	0xbe215a1e	-0.15757033
57	0xbd26f3c9	-0.040759835
58	0x3e33cd77	0.17558847
59	0xbe75b4c4	-0.23994738
60	0x3d83a698	0.064282596
61	0x3c40295e	0.011728613
62	0x3df06c53	0.11739411
63	0xbd5cd0fa	-0.053910233
64	0x3e3540c5	0.17700489
65	0xbca7999c	-0.020458989
66	0x3e1ce586	0.15321931
67	0xbe54a425	-0.20765741
68	0x3d062b81	0.032756332
69	0x3d9efefe	0.0776348
70	0x3c4946d8	0.012284957
71	0xbd1b9d55	-0.03799184
72	0xbd2920d4	-0.041291073
73	0xbdfadaf6	-0.12248795
74	0xbe778840	-0.24173069
75	0x3e2849fb	0.16434471
76	0x3d5ae6f1	0.0534429
77	0xbd2521b5	-0.04031535
78	0x3eb7cd66	0.35898894
79	0x3e0d1441	0.13777258
80	0x3d469f18	0.048491567
81	0xbe6bac6b	-0.23014991
82	0xbd1470da	-0.036240436
83	0x3d30e8a3	0.04319061
84	0x3dc000e2	0.093751684
85	0xbd94729f	-0.07248425
86	0x3ccd9629	0.025096016
87	0x3d8331a7	0.06405955
88	0x3d830694	0.06397739
89	0xbd929a13	-0.071582936
90	0x3c40ec51	0.011775092
91	0xbe1ce79f	-0.15322731
92	0xbe260eeb	-0.16216628
93	0x3c0d9057	0.00864037
94	0xbdb4f86c	-0.08836445
95	0x3e7db90a	0.24777618
96	0xbd836b7f	-0.06416988
97	0x3e9eed9e	0.31040663
98	0xbda79533	-0.08182754
99	0xbda2aa9f	-0.079427
100	0x3e2f2f81	0.17107965
101	0xbb0b5738	-0.0021261703
102	0x3e7a6949	0.24454226
103	0xbdc79940	-0.09746027
104	0x3d026142	0.031831034
105	0xbd68f053	-0.056869816
106	0xbd9870c3	-0.074433826
107	0x3d17b0d3	0.037033867
108	0x3e152e18	0.14568365
109	0x3e2c88d2	0.16849068
110	0xbe1b1f37	-0.15148626
111	0x3d1f2650	0.038854897
112	0xbda6986b	-0.0813454
113	0x3e2dd874	0.16977102
114	0x3e78c192	0.24292591
115	0xbdca171d	-0.0986769
116	0xbdb1262d	-0.086498596
117	0x3c202a2e	0.009775681
118	0x3cd44fef	0.025917022
119	0xbe1c5121	-0.15265323
120	0x3d87f84b	0.06639155
121	0x3dbddb96	0.09270398
122	0xbd1b5117	-0.03791913
123	0x3d9b4d77	0.075831346
124	0xbcc71b32	-0.02430496
125	0x3df975ea	0.121806934
126	0xbe26940c	-0.16267413
127	0xbc3560da	-0.0110704545
128	0x3e4d4146	0.20044431
129	0x3cda7902	0.02666903
130	0xbd83d187	-0.064364485
131	0xbe9a67b6	-0.3015725
132	0xbd021946	-0.031762384
133	0xbd1362bc	-0.035982832
134	0xbe491932	-0.19638517
135	0xbe2c0742	-0.16799644
136	0x3db15a11	0.08659757
137	0xbe12504a	-0.1428844
138	0x3d5e2464	0.054233924
139	0xbe1b04a7	-0.15138493
140	0xbd08b506	-0.033375762
141	0xbc4ee982	-0.012628915
142	0x3e37f655	0.17965062
143	0x3e34834f	0.17628215
144	0x3d709059	0.05873141
145	0x3e499631	0.196862
146	0x3d01d05c	0.031692848
147	0xbde2b694	-0.1106998
148	0xbca7eccf	-0.020498661
149	0x3e4b16b8	0.19832885
150	0x3d8d1ef0	0.068906665
151	0xbdb665d9	-0.08906145
152	0xbd80f306	-0.06296353
153	0x3cd49fcc	0.025955103
154	0xbe02a122	-0.1275678
155	0x3da718c7	0.08159023
156	0xbad10301	-0.001594633
157	0x3e2a106d	0.16607828
158	0xbe4d567d	-0.20052524
159	0xbeaac24c	-0.33351362
160	0x3ce3aa89	0.027791278
161	0xbe23dd97	-0.16002499
162	0x3e1ad3d7	0.15119873
163	0xbc641684	-0.013921384
164	0x3ba7c9e5	0.0051205033
165	0x3d9044ee	0.07044397
166	0x3d9159ed	0.0709723
167	0xbd882385	-0.066474
168	0x3bd3503b	0.006448773
169	0xbacee598	-0.0015784977
170	0x3b870525	0.0041204863
171	0xbc6f8b6c	-0.014620643
172	0x3e8ac58c	0.2710384
173	0x3e7d3674	0.24727803
174	0xbc604eb4	-0.013690639
175	0x3cc7219d	0.02430802
176	0x3e695f65	0.22790296
177	0xbe3357f7	-0.17514025
178	0xbde94b75	-0.113913454
179	0x3e3c7bcd	0.18406601
180	0xbdaee44d	-0.08539639
181	0x3e8550a2	0.2603808
182	0xbdf2d437	-0.11856883
183	0xbda2e1b6	-0.07953207
184	0x3c3ea62a	0.011636296
185	0xbe11d940	-0.1424303
186	0x3d983d56	0.07433574
187	0xbd3da37e	-0.046298496
188	0x3cbf7879	0.023372876
189	0xbd96e30a	-0.07367523
190	0x3c9dbe35	0.019255737
191	0xbd5d39c4	-0.054010168
192	0x3d4838d4	0.04888232
193	0x3d80d122	0.06289889
194	0xbd07c774	-0.033149198
195	0xbdabdf0e	-0.08392154
196	0xbd9622ac	-0.07330832
197	0xbd2b23c4	-0.041782156
198	0x3db259e6	0.08708553
199	0xbdc8d2f3	-0.0980586
200	0x3c4c0c56	0.012454113
201	0x3e2f7997	0.17136227
202	0xbd07a41d	-0.033115495
203	0x3e01f196	0.12689814
204	0x3d8029d2	0.062579766
205	0x3dc7219f	0.097232096
206	0xbe1a4400	-0.15065002
207	0x3da45538	0.08024067
208	0x3e30a318	0.17249715
209	0x3e0a28df	0.13492154
210	0xbdc3f1b9	-0.09567589
211	0xbdb2fe76	-0.08739941
212	0xbda333f8	-0.079688966
213	0xbaf1026b	-0.0018387561
214	0x3dbb1875	0.09135524
215	0xbc2bd5ce	-0.010487987
216	0xbd4e9072	-0.050430723
217	0xbca1c7b3	-0.019748544
218	0x3dfa7025	0.12228421
219	0x3e7df672	0.24801043
220	0xbb29ac8d	-0.0025890202
221	0x3c406c18	0.011744522
222	0x3db3ab3e	0.08772896
223	0xbe95ef59	-0.2928417
224	0xbe014195	-0.12622674
225	0x3e48cb3b	0.19608776
226	0xbcd7b59b	-0.026331713
227	0x3ded2c33	0.11580696
228	0xbe09f231	-0.13471295
229	0x3e05290c	0.1300394
230	0xbc7cdc6e	-0.015433414
231	0xbe8d7c0e	-0.2763371
232	0x3e0da467	0.13832246
233	0x3e2c3646	0.16817579
234	0xbca688b4	-0.020328857
235	0x3d6d565a	0.05794368
236	0xbde0e2ec	-0.10980782
237	0xbe6b27c7	-0.22964393
238	0xbdeaa6f2	-0.114576235
239	0xbe292de6	-0.16521415
240	0xbb8e93ef	-0.004351131
241	0x3d39800b	0.045288127
242	0xbe23788e	-0.15963957
243	0x3cb562b0	0.022141784
244	0x3e00a75e	0.12563846
245	0x3d57ae91	0.052656714
246	0xbd54551f	-0.05183899
247	0xbe2fec0c	-0.17179888
248	0x3e144ef6	0.14483246
249	0x3de60122	0.11230685
250	0x3dec5523	0.11539676
251	0x3daaf5fc	0.08347699
252	0x3dd3fb50	0.103506684
253	0x3bc43c57	0.0059886384
254	0x3dd82d19	0.10555477
255	0x3e31ba5b	0.17356245

hyper_w2.0.bias f4 [64]
0	0xbc3dbe01	-0.011580945
1	0x00000000	0.0
2	0xbbc521ee	-0.0060160076
3	0x3be229e6	0.0069019673
4	0x3bdee735	0.0068024644
5	0x3c45d3ba	0.012074405
6	0x00000000	0.0
7	0xbaec671a	-0.0018036098
8	0xbc12a72c	-0.00895099
9	0x00000000	0.0
10	0x3c83fe06	0.016112339
11	0x00000000	0.0
12	0x3c8568ca	0.016285319
13	0x3c319d09	0.010840663
14	0x3c1d8e99	0.009616517
15	0x00000000	0.0
16	0x3c1b0497	0.0094615435
17	0xbc002f14	-0.007823724
18	0xbbd33b49	-0.0064462763
19	0x00000000	0.0
20	0x3c8ac3e5	0.016939113
21	0x00000000	0.0
22	0xbc1231e7	-0.00892303
23	0x3cd3d2e2	0.025857393
24	0x3b2e9bb1	0.0026643092
25	0x00000000	0.0
26	0x3c8347c8	0.016025439
27	0x00000000	0.0
28	0xbb9fdcdc	-0.0048786234
29	0xbb385739	-0.002812816
30	0x3c73e890	0.01488699
31	0x3c571343	0.013127151
32	0x3c762a1e	0.01502469
33	0x39d4aebf	0.00040565987
34	0x3bb8f7e0	0.0056447834
35	0x00000000	0.0
36	0xbb210ee6	-0.002457553
37	0x3c1d743b	0.009610231
38	0x3c880517	0.01660399
39	0x00000000	0.0
40	0x00000000	0.0
41	0xbbb61d05	-0.0055576586
42	0x3c862571	0.016375275
43	0x00000000	0.0
44	0x3c9252fd	0.017861838
45	0x3c3831e4	0.011242364
46	0x3b2d2725	0.0026421037
47	0x3c6de759	0.01452049
48	0x3c80febf	0.015746472
49	0xba7c1086	-0.00096154993
50	0x3b753d59	0.00374206
51	0x00000000	0.0
52	0xb8ef949b	-0.00011424088
53	0xbb96d195	-0.004602621
54	0x3c89ce47	0.016821994
55	0x00000000	0.0
56	0x3c95b13e	0.018272992
57	0x3c7fadbf	0.015605389
58	0x00000000	0.0
59	0x3c88ffea	0.016723592
60	0x00000000	0.0
61	0x3bc461f8	0.005993124
62	0x3c6efb38	0.014586262
63	0xbb2695af	-0.0025418808

hyper_w2.2.weight f4 [32, 64]
0	0xbdc17dff	-0.0944786
1	0xbba9723a	-0.0051710876
2	0x3c1738bc	0.009229835
3	0xbe0c84a3	-0.13722472
4	0x3bb686b8	0.005570259
5	0x3ce95534	0.02848301
6	0x3d87842e	0.06617008
7	0x3d7ce89f	0.061745282
8	0x3e2be2e4	0.1678577
9	0xbd5a4c10	-0.053295195
10	0xbe02345b	-0.12715285
11	0xbcdeb7c6	-0.02718724
12	0xbe6cb95d	-0.23117585
13	0x3db54f30	0.088529944
14	0xbd4912c7	-0.049090173
15	0x3e98e204	0.29859936
16	0x3c993bce	0.018705275
17	0xbc823c94	-0.015898027
18	0x3d14887e	0.03626298
19	0xbe913e16	-0.2836768
20	0xbbb9c8e2	-0.005669699
21	0xbe38e6c9	-0.18056788
22	0x3dd48efa	0.10378833
23	0xbd6a6d6c	-0.05723326
24	0xbdca6a7e	-0.09883593
25	0x3e0aa759	0.135404
26	0x3e068526	0.1313673
27	0xbdab6b28	-0.08370048
28	0xbb156b22	-0.0022799452
29	0x3e0d5f7f	0.1380596
30	0x3e6dcb1c	0.23222011
31	0xbe3d8f36	-0.18511662
32	0xbdeb0fdc	-0.11477634
33	0xbe222e53	-0.15837984
34	0x3dbba35b	0.09162017
35	0xbdc3a2a3	-0.09552505
36	0xbc37eed7	-0.011226377
37	0x3d247416	0.04014977
38	0xbde6bff3	-0.1126708
39	0xbd116ab9	-0.03550217
40	0xbdc502c4	-0.09619668
41	0xbd5ece60	-0.054396033
42	0xbcdc5126	-0.026894163
43	0x3dbaee32	0.091274634
44	0x3d901c06	0.07036595
45	0xbe4c5d2a	-0.19957414
46	0x3e288fbd	0.16461082
47	0xbdeb0021	-0.11474634
48	0x3dfbad3e	0.12288903
49	0x3e263e6a	0.16234747
50	0xbea4d234	-0.32191622
51	0xbb664951	-0.0035138915
52	0x3dea00f6	0.114259645
53	0x3e37fd7d	0.17967792
54	0x38ef2dbb	0.00011404926
55	0xbd20f5ce	-0.039296918
56	0xbd7f2fdc	-0.0623015
57	0x3d4fb3ba	0.05070851
58	0xbdeb0d9b	-0.114772044
59	0x3c17d3d8	0.009266816
60	0x3d755588	0.059896022
61	0x3d01568d	0.031576682
62	0xbe4e1953	-0.20126848
63	0xbe533c9e	-0.20628592
64	0xbc3034a6	-0.01075474
65	0xbd392697	-0.045202818
66	0xbd4c179e	-0.04982721
67	0x3d449448	0.047992975
68	0x3dc3a086	0.09552102
69	0x3d8e956d	0.069620945
70	0xbdd75dc8	-0.10515934
71	0xbd1d6c21	-0.038433198
72	0x3e27c9ef	0.16385625
73	0x3db4f8b6	0.088365
74	0x3d4dd3e1	0.05025089
75	0x3e17fdf2	0.14842966
76	0x3cbf9635	0.023387054
77	0x3e291346	0.16511258
78	0xbdd87fca	-0.10571249
79	0xbe28dacf	-0.16489719
80	0xbd45723e	-0.048204653
81	0xbcb347e2	-0.021884862
82	0x3d7337ba	0.059379317
83	0xbd73fe51	-0.059568707
84	0xbdb93b89	-0.090445586
85	0xbe110c90	-0.14164948
86	0x3e01dd1d	0.12682004
87	0xbd3f1dc9	-0.046659265
88	0xbd2a0be7	-0.041515257
89	0x3d6360c4	0.055512205
90	0x3e1c43a4	0.15260178
91	0x3a85dbba	0.0010212578
92	0x3e2e4a22	0.17020467
93	0xbaa5f43e	-0.0012661291
94	0x3e7bc344	0.24586207
95	0x3d27c898	0.040962785
96	0xbd730728	-0.059332997
97	0x3dbab58f	0.09116661
98	0x3dd18e02	0.10232164
99	0xbe01a21f	-0.126595
100	0x3c18261a	0.009286428
101	0x3d770642	0.060308702
102	0x3e265e6a	0.16246954
103	0xbe23cf5b	-0.15997069
104	0x3d90f442	0.070778385
105	0x3ddb2bc1	0.10701705
106	0xbe6e17c6	-0.23251256
107	0xbe12a2cd	-0.14319916
108	0xbe406a9b	-0.18790667
109	0x3dc0f10d	0.09420977
110	0xbda067a3	-0.07832267
111	0xbe151730	-0.14559627
112	0xbe066194	-0.1312316
113	0x3d116ca4	0.035504
114	0x3dfdff97	0.124022655
115	0x3e275c9d	0.16343923
116	0x3d841d4d	0.06450901
117	0x3d9326b1	0.07185114
118	0x3ec91140	0.39270973
119	0x3e3e89f4	0.18607312
120	0xbd56f3f6	-0.052478753
121	0xbe7ad399	-0.2449478
122	0xbcc9785f	-0.02459353
123	0xbd5a27cc	-0.05326061
124	0xbd180a7d	-0.037119377
125	0xbe554c7e	-0.2082996
126	0xbe13c91c	-0.14432186
127	0x3df3f70a	0.11912353
128	0x3d5cd03d	0.05390953
129	0xbe5440c0	-0.20727825
130	0x3e27af09	0.16375364
131	0x3da4194d	0.08012638
132	0x3d825048	0.06362969
133	0x3d54f952	0.051995583
134	0xbe268af6	-0.16263947
135	0x3da7d6ac	0.08195242
136	0xbd39949a	-0.045307733
137	0xbe0eff8a	-0.13964668
138	0xbd1262d6	-0.03573879
139	0x3c7d89d9	0.01547476
140	0xbdc593c4	-0.09647325
141	0xbd1ac84c	-0.037788674
142	0x3bf753a9	0.007547815
143	0xbdbd180a	-0.09233101
144	0x3d346343	0.044039976
145	0x3d3455ef	0.044027265
146	0xbdf3e184	-0.11908248
147	0x3d92071a	0.07130261
148	0x3d15983b	0.03652213
149	0x3d270b90	0.04078251
150	0x3d964c6f	0.07338797
151	0x3dbf85fd	0.09351728
152	0x3d8a8cc5	0.06765131
153	0xbe2a190c	-0.16611117
154	0xbcd93b4e	-0.026517536
155	0xbe0ad917	-0.13559376
156	0xbddff25e	-0.109349
157	0xbd9c07be	-0.07618664
158	0xbe1693e4	-0.14704853
159	0xbecbbe36	-0.39793557
160	0x3d25c91e	0.040475003
161	0x3d1be190	0.03805691
162	0x3e8261ea	0.25465328
163	0xbd3c66c2	-0.045996435
164	0x3d2c1370	0.042010725
165	0xbd43f2ad	-0.047838856
166	0xbc6c3e41	-0.014419139
167	0xbe33c3c2	-0.17555144
168	0xbe06fe06	-0.1318284
169	0x3e783c2c	0.24241704
170	0xbd85acdf	-0.06527113
171	0xbd5a3499	-0.053272817
172	0xbe0db48c	-0.13838404
173	0xbe020475	-0.12697013
174	0xbe01a1aa	-0.12659326
175	0xbdd23931	-0.10264815
176	0x3e19e153	0.1502736
177	0x3d4f71e4	0.050645724
178	0xbcd50add	-0.026006157
179	0x3d189aac	0.03725688
180	0x3d03a0a1	0.03213561
181	0xbc76e134	-0.015068341
182	0xbe2135a5	-0.1574312
183	0x3ea7b829	0.3275769
184	0x3c8314d5	0.016001144
185	0x3d59a7ee	0.053138666
186	0xbe9277ff	-0.28607175
187	0x3df2f7de	0.11863683
188	0xbdf4a3e9	-0.11945326
189	0xbbc399b2	-0.0059692496
190	0x3e4dd30c	0.20100039
191	0xbd384310	-0.04498583
192	0xbc08ff70	-0.008361682
193	0xbddd3185	-0.10800461
194	0xbe8b7622	-0.27238566
195	0x3d0670f3	0.03282256
196	0xbe5ee5e0	-0.21767378
197	0x3e9fec34	0.31234896
198	0x3e034f8e	0.12823316
199	0xbc15de23	-0.0091472
200	0xbd7200b0	-0.059082687
201	0xbdede25e	-0.11615442
202	0x3e846c1c	0.2586373
203	0x3d1ffe8b	0.03906111
204	0x3e2f0030	0.17089915
205	0xbc1e041e	-0.009644536
206	0xbdd993d9	-0.10623903
207	0xbe7c496e	-0.24637386
208	0x3e450c26	0.19242916
209	0x3b536838	0.0032258164
210	0x3e102e5d	0.14080186
211	0x3de83fbe	0.11340283
212	0xbaea9a05	-0.0017898685
213	0x3e013642	0.12618354
214	0x3dae1478	0.08499998
215	0x3d3148e6	0.043282412
216	0xbd0edb99	-0.034877393
217	0x3bd2e1da	0.006435615
218	0x3d1ab592	0.037770815
219	0xbdb1de54	-0.08684984
220	0x3e0f245a	0.13978711
221	0xbe0bfd53	-0.13670854
222	0xbd9a350a	-0.07529648
223	0xbba7af35	-0.005117322
224	0xbde1c67a	-0.110241845
225	0xbdc19f3f	-0.09454202
226	0x3e37d219	0.1795124
227	0xbe1379d6	-0.14401945
228	0xbb21e7e7	-0.0024704875
229	0x3e6dd5c1	0.23226072
230	0xbd4b8dbe	-0.049695723
231	0x3e10a2fd	0.14124675
232	0xbca1d5c2	-0.019755248
233	0xbde4a2ec	-0.111638874
234	0xbccf66f9	-0.025317656
235	0xbd8d38eb	-0.06895622
236	0x3db1d021	0.086822756
237	0x3d555970	0.052087247
238	0x3d18ca09	0.03730205
239	0xbd1c2f3e	-0.03813099
240	0x3db44c10	0.0880357
241	0x3c721b45	0.014777009
242	0xbe5a4111	-0.21313883
243	0xbca8f00a	-0.020622272
244	0xbe2356a7	-0.15951024
245	0x3e0057c0	0.12533474
246	0x3e3abc00	0.18235779
247	0x3d0b093f	0.033944365
248	0x3c00c63a	0.007859761
249	0x3e97a105	0.29615036
250	0x3dbec8ed	0.09315667
251	0x3dfca1e5	0.123355664
252	0xbdd4d60c	-0.10392389
253	0x3d4af11e	0.049546354
254	0xbd0410f9	-0.03224275
255	0xbdcb961d	-0.09940741

hyper_w2.2.bias f4 [32]
0	0xba2c1b76	-0.00065653713
1	0xbc0013bd	-0.007817206
2	0xbbe719a3	-0.0070526167
3	0x3c82bd4b	0.015959403
4	0x3c818520	0.01581055
5	0x3c88fdb5	0.01672254
6	0x3c8a94fc	0.016916744
7	0xbc86b052	-0.016441498
8	0x3bc85a7d	0.0061143027
9	0x3c7fbb40	0.015608609
10	0x3c8865c9	0.016650097
11	0x3c8ab909	0.016933935
12	0x3c898171	0.016785355
13	0x385787b5	5.138638e-05
14	0x3bc324ab	0.005955299
15	0x3c848e2a	0.01618107
16	0xbc894e5c	-0.016760997
17	0x3c858dcf	0.016302971
18	0xbc43e142	-0.011955561
19	0x3c076a22	0.00826505
20	0x395f2143	0.00021279328
21	0x3c7ecefb	0.015552278
22	0xbc90b2a6	-0.017663311
23	0x3c93ba08	0.018033043
24	0x3c521196	0.012821576
25	0xbacfcf02	-0.001585454
26	0xbc8ec18a	-0.017426271
27	0x3c8e1986	0.017346155
28	0x3c270acf	0.010195448
29	0x3c82bbe6	0.015958738
30	0xbc8a8af0	-0.016911954
31	0xbbb95963	-0.0056564077

hyper_b1.weight f4 [32, 20]
0	0xbe77706f	-0.24163984
1	0x3dd9a437	0.106270246
2	0xbec57777	-0.38567707
3	0x3e031863	0.12802272
4	0x3dddeec0	0.108365536
5	0x3d828740	0.06373453
6	0x3c9fe530	0.019518465
7	0x3d1ce74b	0.038306516
8	0xbdb493ad	-0.088172294
9	0x3d5ead02	0.05436421
10	0x3cb9d626	0.022685122
11	0xbde13c88	-0.109978735
12	0xbe73b20e	-0.23798391
13	0x3e4eabef	0.20182775
14	0xbe42f49e	-0.19038627
15	0x3df07902	0.117418304
16	0xbd4c5f7a	-0.04989574
17	0x3d42e961	0.04758585
18	0xbdb8d52a	-0.09025033
19	0x3e10cb77	0.14140116
20	0x3e8efd2d	0.27927533
21	0x3e73dd77	0.23814951
22	0x3d83ac12	0.06429304
23	0xbd97a255	-0.07404009
24	0x3c3bf36e	0.011471612
25	0x3cec74f7	0.028864367
26	0xbe59978e	-0.2124922
27	0x3d80051f	0.06250977
28	0xbe66542c	-0.22493047
29	0x3c449a59	0.01199969
30	0x3e03c83d	0.12869354
31	0xbd093c0a	-0.033504523
32	0x3e1299c7	0.14316474
33	0xbd164ad0	-0.03669244
34	0xbbc9dbb2	-0.006160223
35	0xbe6d52e8	-0.23176157
36	0xbe517fb8	-0.20458877
37	0xbd5ab84b	-0.05339841
38	0xbca1f667	-0.019770814
39	0xbd6db80a	-0.05803684
40	0xbea85a9c	-0.3288163
41	0xbdd0ef80	-0.10201931
42	0xbb0d966e	-0.0021604556
43	0xbe92d037	-0.2867448
44	0xbe7ea729	-0.24868454
45	0xbe005c14	-0.12535125
46	0x3df56a59	0.11983175
47	0x3e2767b8	0.1634816
48	0xbe901b27	-0.28145716
49	0xbdc240f1	-0.09485043
50	0xbd340483	-0.043949615
51	0x3e366e7c	0.17815584
52	0xbdbae6e2	-0.09126069
53	0xbe09b6fe	-0.13448712
54	0xbd74615b	-0.059663158
55	0x3e20593c	0.1565904
56	0xbe4f4dba	-0.20244494
57	0x3e019fff	0.1265869
58	0x3db3b765	0.08775214
59	0x3e37235d	0.17884584
60	0x3e7d53f2	0.24739054
61	0x3e8b2567	0.27176973
62	0xbc4c82b6	-0.012482336
63	0x3e3a8d0a	0.18217865
64	0xbdc60e96	-0.09670751
65	0x3c149767	0.0090693
66	0x3d0acd69	0.0338873
67	0x3e8a283f	0.2698383
68	0x3c9b4867	0.018955423
69	0x3e3096b3	0.17244987
70	0x3e37dbd1	0.17954947
71	0xbcde08fe	-0.027103897
72	0x3e5e3758	0.217008
73	0xbd33a7b0	-0.04386109
74	0xbe3a7d35	-0.18211825
75	0x3e22b597	0.15889584
76	0xbde0cdea	-0.10976775
77	0xbe5b7944	-0.21432978
78	0xbdfea4d6	-0.12433784
79	0xbd230b62	-0.039805777
80	0x3e2eaa18	0.17057073
81	0x3da0afbb	0.07846018
82	0x3d989a07	0.074512534
83	0x3d92b285	0.07162956
84	0x3dc6c78a	0.09706028
85	0xbd676c47	-0.056499746
86	0x3c98f734	0.018672563
87	0x3d0cb983	0.034356605
88	0x3ccd7566	0.025080394
89	0xbc3ce18e	-0.011528386
90	0x3e68b3df	0.22724865
91	0xbd8c7146	-0.06857543
92	0x3edc0c49	0.42978123
93	0x3e036c89	0.12834372
94	0xbe2051b6	-0.1565617
95	0x3e8a9536	0.27066964
96	0xbdc3671a	-0.095411494
97	0xbd597834	-0.05309315
98	0x3e3d2565	0.18471296
99	0x3e45a33a	0.19300547
100	0xbe51fd43	-0.20506768
101	0x3d6fed0a	0.058575667
102	0xbe060bfb	-0.13090508
103	0x3e0fb37b	0.1403331
104	0x3eb22fdf	0.34802148
105	0xbc943d95	-0.01809577
106	0x3e1caecb	0.15301053
107	0x3d939647	0.072063975
108	0xbe4b92ef	-0.1988027
109	0xbe1d6115	-0.15369065
110	0xbd81e610	-0.06342709
111	0x3d5f7326	0.054553173
112	0x3efcc83a	0.4937151
113	0x3e40663a	0.18788996
114	0x3e72161b	0.23641245
115	0x3db6c328	0.08923942
116	0xbe75fc11	-0.24021937
117	0x3d9f23ce	0.07770501
118	0xbcc6036f	-0.02417156
119	0xbe5b60fc	-0.21423715
120	0xbd657804	-0.05602266
121	0xbc2200a9	-0.009887853
122	0xbe3e6044	-0.1859141
123	0xbe63b721	-0.22237827
124	0x3e0b1dc1	0.13585569
125	0x3e711d7b	0.23546402
126	0x3eb2fab5	0.349569
127	0xbe3f193a	-0.18661967
128	0x3db60fa0	0.08889699
129	0x3ee9e040	0.45678902
130	0x3defeff8	0.11715692
131	0xbe94da26	-0.29072684
132	0x3d881c40	0.06646013
133	0x3e78241e	0.24232528
134	0x3e0cca20	0.1374898
135	0xbdabbe5e	-0.08385919
136	0x3cd102c1	0.025514008
137	0xbd7942a6	-0.060854577
138	0x3dac770c	0.08421144
139	0xbdf19d53	-0.11797585
140	0x3e86d866	0.26336974
141	0x3d68680d	0.056739856
142	0x3de65a10	0.11247647
143	0x3ed5b356	0.41738385
144	0x3e3a3d07	0.18187343
145	0xbe801828	-0.2501843
146	0x3e9f0f09	0.31066158
147	0xbe9ec311	-0.310082
148	0x3e14290b	0.14468782
149	0x3d1255b1	0.035726253
150	0xbc2a8244	-0.010407034
151	0x3df37a2f	0.11888539
152	0xbe813388	-0.25234628
153	0x3c7edcf7	0.015555612
154	0xbe8c4a23	-0.27400312
155	0xbded879d	-0.11598132
156	0xbe6da15f	-0.2320609
157	0x3d80802f	0.06274449
158	0x3e0a987a	0.13534728
159	0x3e21937f	0.15778922
160	0x3e5a1745	0.21297939
161	0xbe1b7607	-0.15181743
162	0xbdc853f5	-0.097816385
163	0xbea0d6c1	-0.31413844
164	0xbe470bb5	-0.1943806
165	0x3dcb2100	0.099184036
166	0xbbbd1d13	-0.005771288
167	0xbe81d4ff	-0.25357816
168	0x3de518d1	0.11186374
169	0xbe4778f8	-0.1947974
170	0x3cef322e	0.029198732
171	0x3dc73e96	0.09728734
172	0x3e669b19	0.22520103
173	0x3dc4d884	0.096116096
174	0xbe2b2ea8	-0.16717017
175	0xbd699093	-0.057022642
176	0xbe56968e	-0.2095587
177	0xbd1ccbe3	-0.03828038
178	0x3e988339	0.29787615
179	0x3da50582	0.08057691
180	0x3e045dc4	0.12926394
181	0x3dbcd139	0.092195936
182	0x3e74fba4	0.23924118
183	0xbdb890e6	-0.09012012
184	0xbbcc21f6	-0.0062296344
185	0x3e9a396a	0.30121928
186	0x3e5dde03	0.21666722
187	0x3e97986e	0.29608482
188	0x3eabc7ad	0.33550778
189	0xbd278e42	-0.040907152
190	0xbd57e040	-0.052704096
191	0x3e4dc71d	0.20095487
192	0xbe0fb842	-0.14035133
193	0xbd0032e1	-0.031298522
194	0x3de38f85	0.111113586
195	0xbd95e80d	-0.07319651
196	0xbe375b08	-0.1790582
197	0xbd76b78b	-0.060233634
198	0xbe359494	-0.1773246
199	0xbe3d4c49	-0.18486132
200	0xbdf1fdac	-0.11815962
201	0x3e06d1d5	0.13165982
202	0x3e8e5010	0.27795458
203	0x3cc2bf91	0.023772987
204	0x3db0422a	0.0860637
205	0x3eb76d4b	0.3582557
206	0x3c682979	0.014170044
207	0xbc23d822	-0.010000261
208	0x3e7629e9	0.24039425
209	0xbe12c0e5	-0.14331396
210	0xbe0ee807	-0.13955699
211	0x3c70bfdd	0.014694181
212	0x3dab8e5c	0.08376762
213	0xbdbb7bc4	-0.09154466
214	0xbc4d85f5	-0.012544145
215	0x3daac918	0.08339137
216	0xbd306cf4	-0.043072656
217	0x3c0d735c	0.008633461
218	0x3e88fea1	0.26756766
219	0xbd32d399	-0.043658827
220	0xbe2727a5	-0.16323717
221	0xbc6a386e	-0.01429568
222	0x3ec2d214	0.38050902
223	0x3e105d6e	0.1409814
224	0xbe276533	-0.16347198
225	0xbeaa6c4b	-0.33285746
226	0xbd64966f	-0.055807527
227	0x3d574434	0.052555278
228	0x3df8454c	0.12122592
229	0x3da08e2e	0.078396186
230	0xbe11f3a8	-0.14253104
231	0xbe46cba0	-0.19413614
232	0x3e727dee	0.23680851
233	0xbc5c6f27	-0.013454235
234	0x3dc25e39	0.09490628
235	0x3b6caec1	0.0036114904
236	0xbe41f41e	-0.1894078
237	0xbc35e9f0	-0.011103138
238	0xbdc4056f	-0.09571349
239	0x3e084a2b	0.13309543
240	0xbd2df5d5	-0.04247077
241	0x3e196cef	0.14982961
242	0xbd19a04a	-0.03750638
243	0xbde92bc6	-0.11385302
244	0xbe052847	-0.13003646
245	0x3c672a2b	0.014109175
246	0x3e23cf67	0.15997086
247	0xbd74c39a	-0.059756853
248	0x3cbd2b35	0.023091892
249	0xbe5869ec	-0.21134156
250	0x3e8f4580	0.27982712
251	0x3ee9d500	0.4567032
252	0x3d0441c6	0.03228929
253	0x3d2c7eac	0.04211299
254	0x3e52859b	0.20558779
255	0xbe210b46	-0.15726957

hyper_b1.bias f4 [32]
0	0x3c6efc23	0.014586481
1	0x3c7e5bc9	0.015524813
2	0x3c4b47ab	0.012407224
3	0x3c80e6fd	0.015735144
4	0x3c700280	0.014649034
5	0x3c730350	0.014832333
6	0x3c880ddb	0.01660817
7	0x3c78d63f	0.015187799
8	0x3c65e25a	0.014031017
9	0x3c85da4d	0.016339445
10	0x3c85478d	0.01626947
11	0x3c5afd76	0.013366094
12	0x3c7c1432	0.015385674
13	0x3c7249f6	0.0147881415
14	0x3c1df858	0.009641729
15	0x3c816670	0.015795916
16	0x3c6c411d	0.014419821
17	0x3c88ce7d	0.016700024
18	0x3c301d58	0.010749184
19	0x3c6fe7ff	0.0146427145
20	0x3c5f7f0c	0.01364113
21	0x3c73e38c	0.014885794
22	0x3c8d4202	0.017243389
23	0x3c7ac4f3	0.015305745
24	0x3c65da60	0.014029115
25	0x3c043f89	0.008071789
26	0x3c745afd	0.014914271
27	0x3c6dd686	0.014516478
28	0x3c7a6daf	0.01528494
29	0x3c7458ec	0.014913779
30	0x3c707659	0.014676654
31	0x3c5989aa	0.013277451

hyper_b2.0.weight f4 [64, 20]
0	0xbe83a4f0	-0.25711775
1	0xbdb20474	-0.086922556
2	0xbdb315df	-0.08744406
3	0xbcd30583	-0.025759464
4	0xbe22370b	-0.1584131
5	0xbd1e0cd1	-0.03858644
6	0x3b8c2610	0.0042769983
7	0x3e01d168	0.12677538
8	0xbe81fadb	-0.253867
9	0xbe9b53bc	-0.30337322
10	0xbc23937c	-0.0099838935
11	0xbcfe6451	-0.031053694
12	0xbe176181	-0.14783289
13	0xbddb6197	-0.10711973
14	0xbe03dad7	-0.1287645
15	0xbe5bf843	-0.21481423
16	0x3cd8d70f	0.026469735
17	0x3e720a01	0.23636629
18	0xbd3eda07	-0.046594646
19	0xbc10a8e9	-0.008829334
20	0xbde49224	-0.111606866
21	0x3e0a0d7a	0.13481703
22	0xbe024c3a	-0.1272439
23	0xbd485b4f	-0.048915204
24	0x3d3f0c1e	0.046642415
25	0xbdcf733d	-0.10129402
26	0x3c781784	0.015142325
27	0xbd694e86	-0.05695965
28	0xbb0a9818	-0.0021147784
29	0xbd31c9b4	-0.04340525
30	0x3ddab79f	0.10679554
31	0xbd2e92a9	-0.042620335
32	0xbda01d09	-0.07818038
33	0xbd8ae6a9	-0.06782276
34	0xbe207101	-0.15668108
35	0x3df55877	0.11979764
36	0x3e082c1f	0.13298081
37	0xbdc17265	-0.09445647
38	0xbd04b130	-0.03239554
39	0x3db8f0f9	0.09030337
40	0xbd276031	-0.04086322
41	0xbe0c3cb2	-0.13695028
42	0x3e3c936e	0.18415615
43	0xbe022768	-0.12710345
44	0x3d6b10fd	0.05738925
45	0xbc9b5583	-0.018961674
46	0xbd158027	-0.03649917
47	0xbd093c4e	-0.033504777
48	0xbd8905a4	-0.06690529
49	0xbec64262	-0.3872252
50	0xbd28b400	-0.041187286
51	0xbdbe405c	-0.09289619
52	0xbe0df35f	-0.1386237
53	0xbdfd8518	-0.12378901
54	0x3da92342	0.08258678
55	0x3dd0db64	0.101980954
56	0x3e5e0f40	0.21685505
57	0xbdddc456	-0.10828464
58	0x3cb1809f	0.021667777
59	0xbde093a5	-0.10965661
60	0x3da39e6d	0.07989202
61	0x3c79624f	0.0152211925
62	0xbe88eb10	-0.26741838
63	0x3e2d175a	0.16903439
64	0x3e125229	0.14289154
65	0xba6edb8c	-0.00091116945
66	0xbceed473	-0.029154038
67	0x3cedcdf2	0.029028866
68	0xbd07f9c0	-0.033197165
69	0x3c7e6da8	0.015529074
70	0xbda33265	-0.07968596
71	0x3d521358	0.05128798
72	0xbe539bee	-0.20664951
73	0x3de9aa0f	0.11409389
74	0xbd6e00fd	-0.05810641
75	0x3df271a9	0.11838085
76	0xbca3d8d4	-0.020000853
77	0x3d5fa993	0.054605078
78	0x3e1dd798	0.15414274
79	0x3dad99f3	0.08476629
80	0xbe4d863e	-0.2007074
81	0x3e1a2ee4	0.1505695
82	0xbca2511a	-0.019814063
83	0xbd91e75b	-0.07124206
84	0xbe5d6fad	-0.21624632
85	0xbdb8bf9a	-0.0902092
86	0x3e11a6d5	0.14223798
87	0xbcc5e7f8	-0.024158463
88	0x3cdf2bba	0.02724253
89	0x3de18e3c	0.11013457
90	0xbde7a50d	-0.11310778
91	0xbd9a2022	-0.0752566
92	0xbdf9b184	-0.121920615
93	0xbe2eed18	-0.17082632
94	0xbcac6ff7	-0.021049483
95	0xbd8a34f6	-0.06748383
96	0xbdb7793a	-0.08958669
97	0xbe931f8e	-0.28735012
98	0x3e10e784	0.14150816
99	0xbe62e716	-0.22158465
100	0x3d2a21a4	0.04153599
101	0x3e470aee	0.19437763
102	0xbe00d80a	-0.12582412
103	0xbdbc9077	-0.09207242
104	0x3d9ddd5c	0.077082366
105	0x3dafe44a	0.085884646
106	0x3e18bb18	0.1491512
107	0xbdca48f1	-0.09877194
108	0xbe109094	-0.14117652
109	0xbe110d3a	-0.14165202
110	0xbe92acc8	-0.28647447
111	0x3e993dba	0.29929906
112	0x3c0d1c1c	0.008612659
113	0xbd7ee4d6	-0.062229954
114	0x3b634323	0.0034677468
115	0x3cb3dff0	0.021957368
116	0x3dff1e44	0.124569446
117	0x3e5a526e	0.21320507
118	0x3d9f7b85	0.07787231
119	0x3de7ea2e	0.11323963
120	0xbe84a3bb	-0.25906166
121	0x3d708f15	0.058730204
122	0x3c22e64c	0.009942602
123	0x3e14a7ce	0.14517137
124	0xbd859190	-0.065219045
125	0xbd1e2b40	-0.038615465
126	0x3dd06736	0.10175936
127	0x3d232125	0.03982653
128	0xbdc49bd5	-0.09600035
129	0x3e1c93bf	0.15290736
130	0xbca54f3c	-0.020179383
131	0x3cd543c8	0.026033297
132	0x3d3410d0	0.043961346
133	0x3ed56fbb	0.41686806
134	0x3e833e7e	0.25633615
135	0xbc181d29	-0.009284296
136	0x3e882e3b	0.2659777
137	0xbe7ac2d5	-0.24488385
138	0xbdfd4ad9	-0.12367792
139	0xbd235186	-0.03987267
140	0x3bc68a8e	0.0060589975
141	0xbcac65f2	-0.021044705
142	0x3debe467	0.11518174
143	0x3e955f72	0.29174381
144	0xbd0d69b1	-0.034524623
145	0x3d3d2997	0.04618224
146	0xbdd3fe02	-0.103511825
147	0x3dfbdc84	0.122979194
148	0x3da9292f	0.08259808
149	0x3deb07b9	0.11476082
150	0x3e122948	0.1427356
151	0x3e21e6cb	0.15810697
152	0xbc7094bb	-0.014683898
153	0xbe3acf7e	-0.18243214
154	0xbe04ef95	-0.12982018
155	0xbd03b52f	-0.032155212
156	0x3d8f2e87	0.06991296
157	0x3e0128d3	0.1261323
158	0xbc4de58c	-0.012566935
159	0xbcf638aa	-0.030056316
160	0x3c9e3274	0.019311167
161	0xbcbed6f6	-0.02329586
162	0x3d9ceff8	0.07662958
163	0x3e2f735b	0.17133848
164	0xbdbee1d9	-0.09320421
165	0xbdd0b6db	-0.10191127
166	0x3e17caa5	0.14823397
167	0x3de45749	0.11149461
168	0xbc44f3ca	-0.0120210145
169	0xbea47fad	-0.3212866
170	0x3d858f54	0.06521478
171	0xbda6028b	-0.08105954
172	0xbd6d71af	-0.057969745
173	0x3e166cb3	0.14689903
174	0xbca0ff84	-0.01965309
175	0x3e39421c	0.18091625
176	0x3cfd8b77	0.030950291
177	0x3d6f39c5	0.058404703
178	0xbcaef3ab	-0.021356424
179	0x3cd320ff	0.02577257
180	0xbc8fb301	-0.01754141
181	0xbcea4f72	-0.028602336
182	0xbe4fc32a	-0.20289293
183	0xbe31122c	-0.17292088
184	0xbdb89f8e	-0.09014808
185	0x3dd4d04a	0.103912905
186	0x3e65c148	0.22437012
187	0xbc3eb942	-0.011640849
188	0xbdc6ae2c	-0.097011894
189	0x3d37f782	0.044913776
190	0x3c997225	0.018731186
191	0x3e4694bb	0.19392674
192	0x3d26699b	0.040628057
193	0xbd01e84f	-0.031715687
194	0xbdafb894	-0.08580127
195	0x3d07c803	0.03314973
196	0xbde4cf2e	-0.11172329
197	0xbe55a9d1	-0.20865561
198	0xbdf43391	-0.11923898
199	0xbd46bcf8	-0.04852006
200	0xbcd3c761	-0.025851907
201	0xbcb0b430	-0.021570295
202	0x3e3654ad	0.17805739
203	0x3d47302c	0.048629925
204	0x3e05f5fd	0.13082118
205	0x3d18a947	0.03727081
206	0xbc2a560c	-0.010396492
207	0xbc129ddf	-0.008948772
208	0x3d54f636	0.051992618
209	0xbe6b845e	-0.22999713
210	0xbdf50647	-0.11964088
211	0x3df41a1c	0.119190425
212	0x3d24d160	0.040238738
213	0x3d22b871	0.03972668
214	0xbe119ad7	-0.14219223
215	0xbea69bf2	-0.32540852
216	0xbde32c93	-0.11092486
217	0xbd075974	-0.033044294
218	0x3d9bab03	0.07600977
219	0xba513981	-0.0007981286
220	0x3d3289e6	0.04358854
221	0x3d8b2959	0.06794996
222	0x3bab0ff4	0.0052204076
223	0xbcc336f2	-0.02382991
224	0x3cfbb9b0	0.030728191
225	0x3bc35ce3	0.0059620007
226	0xbe42897e	-0.18997762
227	0x3d35581f	0.044273492
228	0xbc82e79c	-0.01597958
229	0xbda3dffd	-0.08001707
230	0x3d169c6f	0.03677028
231	0x3d08759f	0.033315297
232	0x3da71cc8	0.081597865
233	0x3d7e84c2	0.062138326
234	0xbdd777e8	-0.10520917
235	0x3dca6d8f	0.09884178
236	0xbea0c9db	-0.31404004
237	0xbe2a305f	-0.16620015
238	0x3d94ddfa	0.07268901
239	0x3cbbbe49	0.022917883
240	0xbe25094d	-0.16116829
241	0x3c066bc2	0.008204402
242	0xbcc0e30a	-0.02354576
243	0xbdbe824b	-0.09302195
244	0xbc03030a	-0.00799633
245	0xbda3e34d	-0.080023386
246	0x3baef870	0.0053396747
247	0xbe66c240	-0.22535038
248	0xbdea477f	-0.11439418
249	0xbd5614c7	-0.05226591
250	0xbd4e5e44	-0.050382867
251	0x3cc166e7	0.023608638
252	0x3e1d3316	0.15351519
253	0x3d34e5ac	0.044164345
254	0xbcda40c9	-0.02664222
255	0xbd40b5ed	-0.047048498

hyper_b2.0.bias f4 [64]
0	0x00000000	0.0
1	0x00000000	0.0
2	0x00000000	0.0
3	0x3c89710f	0.016777543
4	0x00000000	0.0
5	0xbc620eee	-0.013797505
6	0x3c6af3f1	0.014340387
7	0x3c682917	0.014169953
8	0x3c68101d	0.014163998
9	0x00000000	0.0
10	0xbc62ac9f	-0.013835101
11	0xbaece73f	-0.0018074288
12	0x00000000	0.0
13	0xbc6162a6	-0.01375643
14	0x3c663cc2	0.014052572
15	0xbc213f38	-0.009841733
16	0x00000000	0.0
17	0x3c68b8e3	0.014204237
18	0x00000000	0.0
19	0x00000000	0.0
20	0x00000000	0.0
21	0x3c824bb5	0.01590524
22	0x3c843dc7	0.016142739
23	0x3c69ca27	0.014269388
24	0x3c709bcf	0.014685585
25	0x3c868fad	0.016425932
26	0xbc5cf1de	-0.0134854
27	0x3c908de5	0.017645786
28	0x3c8c5b91	0.017133506
29	0xbc5e5dbb	-0.013572152
30	0xbc6415d7	-0.013921223
31	0x00000000	0.0
32	0x3c67cbd0	0.014147714
33	0xbc679a6d	-0.014135939
34	0x3c7d0c9e	0.015444903
35	0x00000000	0.0
36	0x00000000	0.0
37	0x3bd3906c	0.0064564254
38	0x3c66e87e	0.014093516
39	0x3c67ee35	0.014155914
40	0xbc4d49fe	-0.012529848
41	0xbc6143c2	-0.013749065
42	0x3c6a507d	0.014301416
43	0x3c6c1fe0	0.0144118965
44	0x3c67ae70	0.01414071
45	0x3c6bcccc	0.014392089
46	0xbc4bea2d	-0.012445969
47	0x3c87c86b	0.016575059
48	0xbc62d09c	-0.013843682
49	0x3c7ea193	0.015541452
50	0xbc71e47c	-0.014763948
51	0xbc282323	-0.0102622835
52	0x00000000	0.0
53	0x3c6bbb3a	0.0143879
54	0x00000000	0.0
55	0xbc5826f2	-0.013192879
56	0x00000000	0.0
57	0xbc602829	-0.01368145
58	0x00000000	0.0
59	0x00000000	0.0
60	0x3c64821f	0.013947039
61	0x00000000	0.0
62	0x3c6efc86	0.0145865735
63	0xbc63fc03	-0.013915065

hyper_b2.2.weight f4 [1, 64]
0	0xbd95c500	-0.073129654
1	0x3d565e39	0.05233595
2	0xbd22a87e	-0.039711468
3	0x3c8a028d	0.01684692
4	0xbe2428ec	-0.16031235
5	0xbd9fffa1	-0.07812429
6	0x3da22fe0	0.07919288
7	0x3e284ac2	0.16434768
8	0x3e314492	0.17311314
9	0x3e5ee46e	0.21766827
10	0xbdc308db	-0.095231734
11	0x3e04a16e	0.12952206
12	0xbdaa7518	-0.08323115
13	0xbd8679d2	-0.06566204
14	0x3e738e41	0.23784734
15	0xbc5655ea	-0.013082007
16	0x3df94a6d	0.12172399
17	0x3e088bd0	0.13334584
18	0x3e37c840	0.17947483
19	0x3d99e843	0.075150035
20	0x3ddd0bd6	0.10793273
21	0x3cb1ac33	0.021688556
22	0x3e5bc045	0.21460064
23	0x3e08c2ae	0.13355514
24	0x3d2a3462	0.041553862
25	0x3dcbeb74	0.099570185
26	0xbce7a831	-0.028278442
27	0x3d975df1	0.07390965
28	0x3e2d4176	0.16919503
29	0xbe078e87	-0.13237964
30	0xbe0a7772	-0.13522127
31	0xbcb7ebc3	-0.022451287
32	0x3d680242	0.05664278
33	0xbe1b8d3f	-0.151906
34	0x3cc9a5c0	0.024615169
35	0xbdc3e0b0	-0.0956434
36	0xbd5db7fc	-0.05413054
37	0x3c36e96d	0.0111640515
38	0x3ebb346d	0.36563435
39	0x3e3a8ed9	0.18218555
40	0xbd59be20	-0.053159833
41	0xbd82acb6	-0.06380598
42	0x3db735aa	0.089457825
43	0x3e57a7dc	0.21060127
44	0x3e560379	0.20899762
45	0x3debee0c	0.11520013
46	0xbcf289bd	-0.029606694
47	0x3d87f4bf	0.066384785
48	0xbdcc064e	-0.0996214
49	0x3cc3c9f5	0.023900012
50	0xbe057161	-0.13031532
51	0xbd18dece	-0.037321858
52	0xbdaa0360	-0.08301425
53	0x3d8d05d6	0.06885879
54	0x3ea59876	0.3234288
55	0xbc80aa22	-0.015706126
56	0x3dc31268	0.09524995
57	0xbe1aa1f2	-0.1510084
58	0x3d4a30bf	0.049362894
59	0xbdaba585	-0.0838118
60	0x3e169a86	0.14707384
61	0x3d763861	0.06011236
62	0x3d7ceb09	0.061747584
63	0xbe27c930	-0.1638534
