offpolicy/scripts/offpolicy/models2025-09-13-19-08-25/qmix_models/policy_0/q_network.pt (torch, 149326 bytes, 16 tensors)

mlp.feature_norm.weight f4 [10]
0	0x3f8113bd	1.0084149
1	0x3f79b2a3	0.97538203
2	0x3f821d59	1.0165206
3	0x3f816137	1.0107793
4	0x3f7cfcc4	0.9882319
5	0x3f813987	1.0095681
6	0x3f7e16e6	0.9925369
7	0x3f8067c1	1.0031663
8	0x3f7be054	0.9838917
9	0x3f7ee8d0	0.99573994

mlp.feature_norm.bias f4 [10]
0	0xbbcacc21	-0.006188885
1	0x3c2e855b	0.010651912
2	0xbc6713b8	-0.014103822
3	0x3c6aa918	0.014322542
4	0xbb9d8e31	-0.0048082103
5	0xbbf4a05a	-0.0074654045
6	0x3b3b2b68	0.0028559808
7	0x3bb4828b	0.005508726
8	0x3c056770	0.008142337
9	0xbcaed34a	-0.021340985

mlp.mlp.fc1.0.weight f4 [128, 10]
0	0xbd7bda43	-0.061487447
1	0xbd795007	-0.060867336
2	0x3d29427c	0.04132317
3	0x3e684bb2	0.22685125
4	0xbcff0994	-0.031132497
5	0xbc4d6e5b	-0.012538518
6	0xbcad9411	-0.021188768
7	0xbd192ddc	-0.03739725
8	0x3c9a5b19	0.018842267
9	0xbe4eb438	-0.20185935
10	0xbe35e1d3	-0.17761926
11	0x3e08035a	0.13282529
12	0x3c8da852	0.017292175
13	0x3d1f8aa0	0.038950562
14	0xbd8039c6	-0.062610194
15	0xbda8e396	-0.082465336
16	0x3d9f095d	0.07765458
17	0xbe271f1d	-0.16320463
18	0x3e16070d	0.14651127
19	0xbe199a05	-0.1500016
20	0x3e352a66	0.17691955
21	0x3d6686fe	0.056281082
22	0x3b700856	0.0036626062
23	0x3c9d4c69	0.019201474
24	0xbe017b80	-0.12644768
25	0xbc7217d9	-0.014776194
26	0xbc170034	-0.009216357
27	0x3d3efd22	0.046628125
28	0xbb9e2189	-0.004825775
29	0x3e72a831	0.23696972
30	0xbe1d715f	-0.15375279
31	0x3d9e3b44	0.07726148
32	0x3dc26abe	0.09493016
33	0xbdb7e798	-0.0897972
34	0xbe65850d	-0.22414036
35	0x3c7177b2	0.01473801
36	0xbcb21039	-0.021736251
37	0xbe5a8479	-0.21339597
38	0xbd717c30	-0.058956325
39	0xbdeb8980	-0.115008354
40	0x3e5888a3	0.21145873
41	0x3e0b59d6	0.13608488
42	0xbc8d0b51	-0.01721731
43	0xbd91e17c	-0.07123086
44	0xbc5e9b8b	-0.013586889
45	0x3d7eea5c	0.06223522
46	0x3d86ad8f	0.065760724
47	0x3cc58541	0.024111392
48	0x3e572d5e	0.210134
49	0xbd170c25	-0.036876816
50	0xbdd5316a	-0.104098156
51	0xbc2b083d	-0.010438976
52	0xbe0b6ad9	-0.13614978
53	0x3d9b0d5a	0.07570906
54	0xbda473a7	-0.080298714
55	0xbe8d1e7f	-0.2756233
56	0x3d99410b	0.07483109
57	0x3d31c2fc	0.043398842
58	0x3d9fe1c4	0.07806733
59	0x3cd3fc90	0.025877267
60	0x3dfa3e0f	0.12218868
61	0x3dc6aed5	0.09701315
62	0x3e713077	0.23553644
63	0xbcfbc5b0	-0.030733913
64	0xbcae4156	-0.021271389
65	0x3dcb5a35	0.09929315
66	0x3e30c459	0.172624
67	0x3d277397	0.04088172
68	0xbde9dd8c	-0.1141921
69	0x3a09a554	0.0005250771
70	0x3bc92f74	0.00613969
71	0x3dc55eed	0.09637246
72	0x3e9653ed	0.29360905
73	0xbdda2cf9	-0.10653109
74	0xbe241ee8	-0.16027415
75	0xbb7896e7	-0.0037931742
76	0xbd0e4a0c	-0.034738585
77	0xbba97afb	-0.005172131
78	0x3d067ee5	0.03283586
79	0x3e1e6f27	0.15472089
80	0xbdce1901	-0.10063363
81	0x3e5a7d1e	0.21336791
82	0xbe46a42f	-0.19398569
83	0xbdc07d5f	-0.09398913
84	0xbd613a68	-0.05498734
85	0xbd90cec6	-0.07070689
86	0xbe1475f7	-0.14498125
87	0x3deb7657	0.11497181
88	0x3d6f9ae1	0.058497313
89	0x3d3a12c7	0.045428064
90	0x3b93f27e	0.0045149913
91	0x3e58abee	0.21159336
92	0x3df22a10	0.11824429
93	0x3e32d87b	0.17465393
94	0x3db1a3d2	0.08673824
95	0x3d9bffda	0.07617159
96	0x3e0b6791	0.13613726
97	0x3e05d1da	0.13068333
98	0x3e0d56df	0.1380267
99	0xbe5cfe3b	-0.21581356
100	0x3e12e2b1	0.14344288
101	0x3e35843f	0.17726229
102	0xbe127063	-0.14300685
103	0xbd8549a9	-0.0650819
104	0x3e05e727	0.13076459
105	0xbe03cf0e	-0.12871954
106	0xbd175381	-0.03694487
107	0x3e25b32d	0.16181631
108	0xbdc7b8fc	-0.0975208
109	0xbd13bbf4	-0.036067918
110	0x3c36c516	0.011155387
111	0x3e1e5e60	0.15465689
112	0x3e096262	0.13416436
113	0xbdd6434d	-0.10462055
114	0xbd14005c	-0.036133155
115	0xbe146502	-0.14491656
116	0xbdb91125	-0.09036473
117	0x3c751759	0.01495918
118	0xbdf2eb63	-0.11861303
119	0xbd9e8c53	-0.077416085
120	0xbd3f6c49	-0.04673413
121	0x3e182a59	0.14859904
122	0xbc88e1be	-0.016709205
123	0x3d0a0a19	0.033701036
124	0x3de85f80	0.1134634
125	0x3e6b697a	0.22989455
126	0x3d347ac5	0.044062395
127	0xbe003a32	-0.125222
128	0x3dcae16c	0.09906277
129	0x3d8c2df5	0.06844703
130	0x3e44346e	0.19160625
131	0x3e04395f	0.1291251
132	0x3da08cdb	0.07839366
133	0x3cac85c9	0.021059887
134	0x3d79b91f	0.06096756
135	0x3c5c6ea1	0.01345411
136	0x3d986cf5	0.07442657
137	0xbe000cdb	-0.12504904
138	0x3dea709c	0.1144726
139	0x3e06970e	0.1314356
140	0xbe11d8e0	-0.14242887
141	0xbe18e030	-0.1492927
142	0x3d0d5c6d	0.034511972
143	0xbd892246	-0.0669599
144	0x3d83d7c5	0.06437639
145	0xbe15ea8b	-0.14640252
146	0xbd47e710	-0.048804343
147	0xbd1ac68f	-0.037787016
148	0x3e0964f1	0.13417412
149	0xbe56611b	-0.2093548
150	0xbe489860	-0.19589376
151	0xbc6438c8	-0.013929553
152	0x3e254b50	0.1614201
153	0x3d2545ed	0.04034989
154	0xbd9cefa5	-0.07662896
155	0xbdf86fe1	-0.12130714
156	0xbcbf380d	-0.023342157
157	0x3d0dcd64	0.034619704
158	0xbcd583dd	-0.026063854
159	0x3e149c29	0.14512695
160	0xbe7a8ab9	-0.24466981
161	0xbd85fb0a	-0.065420225
162	0x3d4a2aec	0.04935734
163	0x3d9ef8b8	0.07762283
164	0x3d6bb6af	0.057547268
165	0xbd881905	-0.06645397
166	0xbdf76a75	-0.12080852
167	0x3e844512	0.25833946
168	0xbd539fe5	-0.05166616
169	0x3dc5fef7	0.09667771
170	0xbb90d377	-0.00441974
171	0xbd83b057	-0.064301185
172	0xbe1345c4	-0.14382082
173	0xbb7b238a	-0.0038320743
174	0xbc86c2a0	-0.016450226
175	0x3e722b22	0.23649266
176	0xbd9fd528	-0.07804328
177	0xbe939f4c	-0.2883247
178	0xbd67010c	-0.056397483
179	0xbd8fee2f	-0.07027852
180	0x3e267b14	0.16257888
181	0xbea2775a	-0.31731683
182	0x3e8f80d1	0.28027967
183	0x3d724b51	0.05915386
184	0xbdfaa5ae	-0.12238632
185	0xbe397718	-0.18111837
186	0x3da4a60d	0.08039484
187	0xbd9cdae7	-0.0765894
188	0xbe174197	-0.14771114
189	0xbd8da8c7	-0.06916957
190	0xbd4cc113	-0.049988817
191	0x3e17f766	0.14840469
192	0x3d2a258f	0.041539725
193	0xbe14f14e	-0.14545175
194	0x3da80d72	0.082056895
195	0x3df015eb	0.117229305
196	0xbe65529f	-0.22394799
197	0x3d792e8b	0.060835402
198	0x3e4b626b	0.19861762
199	0xbe8ac6a5	-0.2710468
200	0x3dbf6939	0.093462415
201	0x3c224d40	0.009906113
202	0xbce9137b	-0.028451672
203	0x3e6ee1e4	0.23328358
204	0x3dbe4bf1	0.092918284
205	0x3d45a6d3	0.0482548
206	0xbe470796	-0.19436488
207	0xbdf8d338	-0.12149662
208	0x3d13bff6	0.03607174
209	0xbdb9af95	-0.09066693
210	0x3d57cde8	0.052686602
211	0xbc9d08df	-0.01916927
212	0xbdfe59a6	-0.12419443
213	0xbd0852a9	-0.033281956
214	0xba320b3e	-0.00067918363
215	0x3e0cbb07	0.1374322
216	0x3e5e43c5	0.2170554
217	0x3e847ac2	0.25874907
218	0xbe101840	-0.1407175
219	0xbd049937	-0.03237268
220	0xbdce9c9b	-0.10088464
221	0xbe0a515d	-0.135076
222	0xbe536aba	-0.20646182
223	0x3e3d1201	0.18463899
224	0xbc9075da	-0.017634321
225	0x3d0cf382	0.034411915
226	0x3daaa027	0.08331328
227	0xbdf8c273	-0.12146463
228	0x3a7d14a3	0.0009654259
229	0xbe5c2904	-0.21500021
230	0x3c0d78f1	0.008634792
231	0xbea4aadc	-0.32161605
232	0x3e2ef5a1	0.17085887
233	0xbe0c98c0	-0.13730145
234	0xbd16b3a5	-0.036792416
235	0x3d93edd0	0.072230935
236	0x3de3d2a9	0.111241646
237	0x3d8fc57a	0.070200875
238	0xbd0a90b3	-0.033829402
239	0xbe137336	-0.14399418
240	0xbd71b9dd	-0.059015144
241	0x3ddccbeb	0.10781082
242	0x3dcd6a08	0.100299895
243	0xbe5a91fb	-0.2134475
244	0x3e901013	0.28137264
245	0xbd03b3a0	-0.032153726
246	0x3e30cb29	0.17265
247	0xbdcb0445	-0.09912924
248	0xbe38f196	-0.18060908
249	0x3e3b34f3	0.18281917
250	0x3d0cfbb2	0.034419723
251	0x3c8ec5ca	0.017428298
252	0x3e244878	0.1604327
253	0xbde81b93	-0.11333384
254	0xbd46ef7e	-0.04856824
255	0x3da24c64	0.079247266

mlp.mlp.fc1.0.bias f4 [128]
0	0x3c698c60	0.014254659
1	0x3b98b5c5	0.0046603405
2	0xbcceac83	-0.025228744
3	0xbad04bb5	-0.0015891703
4	0xbc239cf1	-0.009986148
5	0x3c37eee9	0.011226394
6	0xbcd1eafd	-0.025624746
7	0x00000000	0.0
8	0x3c3432e2	0.0109984595
9	0x3b03368f	0.0020021533
10	0x3c39f90c	0.011350881
11	0x3b9d3b1d	0.0047983066
12	0x00000000	0.0
13	0x00000000	0.0
14	0xbc297091	-0.010341779
15	0xbb71c27e	-0.0036889608
16	0x3bb2388b	0.0054388694
17	0x00000000	0.0
18	0x00000000	0.0
19	0x3ab5a98e	0.0013859735
20	0x3c9d7ce9	0.0192246
21	0xbc30ed75	-0.010798802
22	0x3c210b24	0.009829316
23	0xbb3132df	-0.0027038378
24	0xbbf6c6b2	-0.0075310105
25	0x00000000	0.0
26	0x3c426823	0.011865648
27	0x3c7c33a3	0.0153931705
28	0xbb97a993	-0.004628369
29	0xbc9d5c41	-0.01920903
30	0x3c0f7d4e	0.008757902
31	0xbbd5af56	-0.006521146
32	0x3b63ed41	0.0034778866
33	0xbbec5fea	-0.0072135823
34	0x3c805265	0.015664289
35	0x3c89b95c	0.016812019
36	0x3b2ceab4	0.002638501
37	0xb8e15434	-0.0001074452
38	0xbbfc3ab2	-0.0076974267
39	0xbc66ce56	-0.01408728
40	0xbc03a682	-0.008035304
41	0xbc3f5ed7	-0.011680326
42	0xb92953d6	-0.00016148327
43	0x3b770b50	0.0037695952
44	0xbbb04b85	-0.0053800964
45	0xbc946ac4	-0.018117316
46	0xbc4a7586	-0.012357121
47	0x00000000	0.0
48	0xbbc3d2b9	-0.005976048
49	0xbb45c0b0	-0.0030174665
50	0xbc294330	-0.01033096
51	0xbcb5f26b	-0.02221032
52	0x3a8c0f9e	0.0010685807
53	0xbbe78d7a	-0.007066426
54	0xbbd9ac7a	-0.0066428753
55	0xbae3f08f	-0.0017390418
56	0x3c717618	0.014737628
57	0xbc47289d	-0.012155679
58	0x3c7ade60	0.015311807
59	0xbbb7cd60	-0.0056091994
60	0xbc4a319e	-0.012340931
61	0xbc057eea	-0.008147934
62	0x00000000	0.0
63	0xbc7c663f	-0.015405237
64	0x3cabc4af	0.02096781
65	0xbcbe6479	-0.023241268
66	0x3c99f385	0.018792877
67	0x00000000	0.0
68	0x3c7b9e2b	0.015357534
69	0x00000000	0.0
70	0x3c81a5ab	0.015826067
71	0xbc06b0b7	-0.008220843
72	0xbc19fcb5	-0.009398629
73	0x00000000	0.0
74	0x00000000	0.0
75	0x3c6d332e	0.014477534
76	0xbbc2ceee	-0.005945078
77	0xbb845997	-0.0040390003
78	0x3c1d2f46	0.00959379
79	0x3a74cc5f	0.0009338315
80	0x3a0dd514	0.0005410474
81	0xbbda844f	-0.0066686044
82	0x00000000	0.0
83	0xbc4443c3	-0.011979046
84	0xbc6243f6	-0.013810148
85	0xb93f69a8	-0.0001825454
86	0xbc844a03	-0.016148573
87	0x00000000	0.0
88	0x3c2bd9d0	0.010488942
89	0xb8b4ae48	-8.615531e-05
90	0x3cc50416	0.0240498
91	0xbc93169b	-0.017955115
92	0x3ce75300	0.02823782
93	0xbbf65fa1	-0.007518724
94	0xbc9c2450	-0.019060284
95	0x00000000	0.0
96	0xbc1fc946	-0.009752577
97	0x3b9f7ccf	0.0048671733
98	0xbbd6a5a9	-0.00655051
99	0x39fb991a	0.0004798852
100	0x3bd7af81	0.006582201
101	0x3a330b66	0.00068300066
102	0x3c6ada1e	0.01433423
103	0xbbc1940e	-0.005907542
104	0x00000000	0.0
105	0xbc606b4d	-0.0136974575
106	0x3b9f70f4	0.00486576
107	0xbc5478f5	-0.0129682915
108	0xbc05cc54	-0.008166391
109	0x3bb46052	0.0055046463
110	0x3cb05ce3	0.021528667
111	0xbb80f258	-0.0039351396
112	0xbc16ba97	-0.00919976
113	0x39f88315	0.0004739991
114	0x3ca56989	0.020191925
115	0x3b3e483a	0.002903475
116	0x3bfa98c2	0.0076476047
117	0xbc11c1d8	-0.008896314
118	0xbbb14f1c	-0.005411042
119	0x3b866822	0.004101769
120	0xbbc2b7b7	-0.0059423107
121	0x00000000	0.0
122	0xbc2c91df	-0.010532825
123	0x3aab8383	0.0013085458
124	0x3bdf4fcd	0.006814933
125	0xbc1f7123	-0.009731564
126	0x3bed264f	0.0072372328
127	0xbc990c42	-0.018682603

mlp.mlp.fc1.2.weight f4 [128]
0	0x3f81cd92	1.014086
1	0x3f817165	1.011273
2	0x3f80cde6	1.0062835
3	0x3f80fca0	1.0077095
4	0x3f7e6ebd	0.99387723
5	0x3f81ad5d	1.0131031
6	0x3f79d4a7	0.97590107
7	0x3f7bc295	0.98343784
8	0x3f8188c3	1.0119861
9	0x3f80191f	1.0007666
10	0x3f7b854b	0.98250264
11	0x3f7d0b66	0.9884552
12	0x3f81111d	1.0083348
13	0x3f8122c6	1.0088737
14	0x3f7cc42e	0.98736846
15	0x3f7f20e8	0.99659586
16	0x3f8024dd	1.001125
17	0x3f80f850	1.0075779
18	0x3f806ca9	1.003316
19	0x3f7d9eeb	0.99070615
20	0x3f8090b3	1.0044159
21	0x3f7c0881	0.98450476
22	0x3f7b2b22	0.9811269
23	0x3f7c4d29	0.9855524
24	0x3f805ba5	1.0027968
25	0x3f7e8225	0.99417335
26	0x3f7f8bf7	0.99822944
27	0x3f8241be	1.0176313
28	0x3f80e7df	1.0070761
29	0x3f8194fb	1.012359
30	0x3f80cd99	1.0062743
31	0x3f7a84da	0.97858965
32	0x3f7e5b60	0.9935818
33	0x3f80b707	1.0055856
34	0x3f8083cb	1.004022
35	0x3f7ec824	0.9952414
36	0x3f7a26e3	0.97715586
37	0x3f817e40	1.0116653
38	0x3f80398e	1.0017564
39	0x3f8187eb	1.0119604
40	0x3f828166	1.0195739
41	0x3f7df137	0.9919619
42	0x3f785cb4	0.97016454
43	0x3f7c0d2c	0.984576
44	0x3f7be5af	0.98397344
45	0x3f7e3dcb	0.9931304
46	0x3f81daec	1.0144935
47	0x3f813770	1.0095043
48	0x3f80199b	1.0007814
49	0x3f815ca6	1.0106399
50	0x3f80a7b0	1.0051174
51	0x3f7e2c40	0.9928627
52	0x3f7ef8c3	0.9959833
53	0x3f7b853c	0.98250175
54	0x3f7f266a	0.9966799
55	0x3f815c95	1.0106379
56	0x3f7b91c5	0.982693
57	0x3f80fbf6	1.0076892
58	0x3f80076d	1.0002266
59	0x3f803481	1.0016023
60	0x3f82ab86	1.0208595
61	0x3f80e5f3	1.0070175
62	0x3f7f63cf	0.9976167
63	0x3f7d7e09	0.9902044
64	0x3f7ad67d	0.97983533
65	0x3f7c0a4d	0.9845322
66	0x3f7bf4dd	0.98420507
67	0x3f810977	1.0081013
68	0x3f8266d0	1.0187626
69	0x3f818b02	1.0120547
70	0x3f7f0dbe	0.99630344
71	0x3f801d59	1.0008956
72	0x3f7aaef1	0.9792319
73	0x3f7e2795	0.9927915
74	0x3f80e7ac	1.0070701
75	0x3f8124eb	1.0089391
76	0x3f801f96	1.0009639
77	0x3f7fac17	0.99871963
78	0x3f7fc6e5	0.99912864
79	0x3f7b3a19	0.98135525
80	0x3f7f28d4	0.99671674
81	0x3f7feea5	0.9997352
82	0x3f7e4f76	0.9934
83	0x3f815e2a	1.0106862
84	0x3f81d9f6	1.0144641
85	0x3f7dd5e9	0.99154526
86	0x3f7a44e8	0.9776139
87	0x3f7be4d8	0.9839606
88	0x3f823eeb	1.0175451
89	0x3f7e2e18	0.99289083
90	0x3f83cc91	1.0296804
91	0x3f8125ff	1.008972
92	0x3f810f7c	1.008285
93	0x3f80da72	1.0066664
94	0x3f7cc8f2	0.9874412
95	0x3f8090f7	1.004424
96	0x3f814e65	1.0102049
97	0x3f803a8a	1.0017865
98	0x3f7e890d	0.9942787
99	0x3f80216a	1.0010197
100	0x3f801f19	1.000949
101	0x3f80459f	1.0021247
102	0x3f7f8453	0.99811286
103	0x3f8132da	1.0093644
104	0x3f7ba8e2	0.9830457
105	0x3f802623	1.0011638
106	0x3f7e72ce	0.9939393
107	0x3f80b8e6	1.0056427
108	0x3f7c741c	0.9861467
109	0x3f7d6ab9	0.9899097
110	0x3f7e3892	0.9930507
111	0x3f7b0033	0.9804718
112	0x3f7de6bb	0.9918019
113	0x3f80da8e	1.0066698
114	0x3f7da3a9	0.9907785
115	0x3f7ae98f	0.9801263
116	0x3f8012c8	1.0005732
117	0x3f794f77	0.9738688
118	0x3f80c792	1.0060904
119	0x3f8054e1	1.0025903
120	0x3f7fc95d	0.9991663
121	0x3f80d881	1.0066072
122	0x3f7ffd5c	0.9999597
123	0x3f7c6fba	0.9860798
124	0x3f808ae3	1.0042385
125	0x3f7b402f	0.9814481
126	0x3f7a42b8	0.97758055
127	0x3f7d8511	0.9903117

mlp.mlp.fc1.2.bias f4 [128]
0	0x3c7766d3	0.015100199
1	0x3bc9f9da	0.006163818
2	0xbcaeda8f	-0.021344451
3	0xbbe4eb96	-0.006986092
4	0x3ba600f8	0.0050660335
5	0x3c40be04	0.011764053
6	0x3ca64e6d	0.020301068
7	0x3c839533	0.016062355
8	0x3c3d1e43	0.0115428595
9	0x3bc871a5	0.006117063
10	0x3c5124d5	0.012765129
11	0x3cbea6c9	0.023272889
12	0xbc08f70d	-0.008359683
13	0xbc147227	-0.009060419
14	0xbc404bdd	-0.011736837
15	0x3b0d0eea	0.0021523782
16	0x3bef2a6c	0.0072987583
17	0xbbf8caba	-0.0075925263
18	0xbb61d631	-0.0034459943
19	0x3c864f6a	0.01639529
20	0x3cc98069	0.024597364
21	0x39994dff	0.00029240546
22	0x3c2fb01e	0.010723142
23	0x3c69ea79	0.014277094
24	0xbb788f2b	-0.0037927132
25	0x3bb51ee9	0.0055273664
26	0x3be4489a	0.0069666626
27	0x3c808129	0.015686588
28	0xbbf1678d	-0.0073670805
29	0xbc65b692	-0.014020579
30	0xbaca1f7b	-0.0015420759
31	0x3ca0160b	0.01954176
32	0x3c2439d3	0.010023552
33	0xbb8e93d9	-0.004351121
34	0x3c861222	0.016366068
35	0x3c8ce6e1	0.017199935
36	0x3c4f1313	0.012638825
37	0xbc059cf4	-0.008155096
38	0xbbb8af9d	-0.005636169
39	0xbc587b67	-0.013213015
40	0xbca23523	-0.019800728
41	0xbc55ead5	-0.013056477
42	0x3c03eba8	0.00805179
43	0x3c80a55e	0.015703853
44	0xbb79e14f	-0.003812868
45	0xbc9b968c	-0.018992685
46	0xbc6df915	-0.014524718
47	0xbc1a3ba5	-0.009413634
48	0xbba226db	-0.0049484796
49	0xbc2f685e	-0.010706035
50	0xbbb7d70a	-0.0056103515
51	0x3bc0b07c	0.0058804136
52	0xb88a12f3	-6.583882e-05
53	0x3c922efb	0.017844668
54	0xbc0636bd	-0.008191762
55	0xbc01278a	-0.007882962
56	0x3c7aced7	0.0153081035
57	0xbbffe06f	-0.007808737
58	0x3c0e86c2	0.008699121
59	0x3b512fa7	0.0031919272
60	0xbc94ecc0	-0.018179297
61	0xbbf1c578	-0.0073782764
62	0x3b204573	0.0024455457
63	0x3bda24cf	0.00665722
64	0x3c918307	0.017762674
65	0x3bd0e7bf	0.0063752825
66	0x3c9d98e2	0.01923794
67	0xbc0309fa	-0.007997984
68	0x3c87ddb3	0.016585207
69	0xbc46b589	-0.012128242
70	0x3c9b1f24	0.018935747
71	0xbc50acac	-0.012736481
72	0x3b1a95c5	0.0023587805
73	0x3bec7f3b	0.0072173155
74	0xbbf4d084	-0.007471146
75	0x3c7fd07d	0.015613672
76	0xba1db52c	-0.00060160714
77	0xbb8deafa	-0.00433099
78	0x3c27a39c	0.010231879
79	0x3c22ee9e	0.009944586
80	0x3b1603a3	0.0022890351
81	0xbc74a9f3	-0.014933097
82	0x3bcf76ef	0.0063313167
83	0xbc5fab4f	-0.013651683
84	0xbc6810ca	-0.014164159
85	0x3bf791f3	0.0075552403
86	0xbc163bdf	-0.009169548
87	0x3c84bcbf	0.016203282
88	0x3c31bb96	0.010847947
89	0x3b287276	0.002570299
90	0x3c7c7518	0.015408777
91	0xbc1c01d1	-0.009521917
92	0x3c1365df	0.008996456
93	0xbc1e33bf	-0.009655892
94	0xbc85c3e8	-0.016328767
95	0xbb8d97f3	-0.0043210923
96	0xbc2dbce9	-0.010604122
97	0x3bb24a86	0.005441013
98	0x3b757937	0.0037456283
99	0x3b10fc70	0.002212312
100	0x3bd75fc9	0.006572698
101	0x3b42f866	0.0029750108
102	0x3aec0a9d	0.0018008534
103	0xbc1bc959	-0.009508454
104	0x3c8bfa12	0.017087016
105	0xbc2645fb	-0.010148521
106	0xbbdcade5	-0.006734597
107	0xbbb9998f	-0.0056640576
108	0x3ba79a63	0.00511484
109	0x3b92ce42	0.0044801543
110	0x3c95bf4f	0.0182797
111	0xb9175ebc	-0.00014435773
112	0x3c5bc96a	0.01341472
113	0x3ca0cd22	0.019629065
114	0x3cadd8d9	0.021221565
115	0x3ca1eec7	0.019767178
116	0x3c02acfb	0.007975812
117	0x3cbd44f9	0.023104178
118	0xbb9d31ad	-0.0047971816
119	0x3bb201bd	0.005432336
120	0x396bde96	0.00022494266
121	0xbbdf1774	-0.0068082158
122	0xbbb080b0	-0.0053864345
123	0x3aee3dc6	0.0018176369
124	0x3c01db5b	0.007925834
125	0x3c8fc12f	0.017548172
126	0x3bebad0b	0.007192259
127	0x3c06a0a8	0.008217014

mlp.mlp.fc_h.0.weight f4 [128, 128]
0	0xbdf62084	-0.120179206
1	0x3e3b4f31	0.18291928
2	0x3cf4d26d	0.029885495
3	0x3e3890a9	0.18023933
4	0x3ae0e15d	0.0017157007
5	0xbd2814f4	-0.041035607
6	0x3e0e7a24	0.1391378
7	0x3dfee7e1	0.12446571
8	0xbc55413d	-0.013016042
9	0x3d972c5b	0.07381507
10	0x3c9dc57c	0.019259207
11	0x3dee8503	0.11646464
12	0x3e2268fa	0.15860358
13	0x3d003ba9	0.031306896
14	0xbdf514d1	-0.11966861
15	0x3cb19ea2	0.021682087
16	0x3d9d3233	0.0767559
17	0x3dd24908	0.10267836
18	0xbd894ff4	-0.06704703
19	0x3d52c73f	0.051459547
20	0x3da6082d	0.08107028
21	0xbce3a3bf	-0.027788041
22	0xbda44f39	-0.08022923
23	0x3d84c7ba	0.06483407
24	0x3d752c35	0.059856612
25	0x3e430087	0.1904317
26	0x3d5206e5	0.051276106
27	0xbd3b6e52	-0.045759507
28	0xbe15af74	-0.14617711
29	0x3e247dc2	0.16063598
30	0x3d064008	0.03277591
31	0xbda84983	-0.08217146
32	0xbbc35955	-0.005961577
33	0xbc2bce16	-0.010486146
34	0x3cf1fcc0	0.029539466
35	0x3e0a04bd	0.1347837
36	0xbcb762da	-0.022386003
37	0x3d22d552	0.03975422
38	0x3e2dd15e	0.16974398
39	0x3e173303	0.14765553
40	0xbe26ee02	-0.1630173
41	0x3daf7bf9	0.08568568
42	0xbe175bcb	-0.1478111
43	0x3c9d2c6b	0.01918622
44	0x3e90c16a	0.28272563
45	0xbd291ab6	-0.04128524
46	0xba976eb0	-0.0011553373
47	0x3d5199ad	0.051171947
48	0xbe44f581	-0.19234277
49	0xbd23b5c5	-0.03996827
50	0x3dba3875	0.090927996
51	0xbda5bedf	-0.080930464
52	0x3e3bd81c	0.18344158
53	0x3e12b4d7	0.14326797
54	0x3e6137ca	0.21993938
55	0x3daa1c16	0.08306138
56	0x3eba0e4f	0.36339042
57	0xbd89c6da	-0.06727381
58	0x3e5b3385	0.21406372
59	0xbe794d45	-0.24345882
60	0xbd4b8272	-0.04968495
61	0x3e12dd6f	0.14342283
62	0x3dc1c031	0.09460486
63	0x3b8daaef	0.0043233554
64	0x3e3c1486	0.18367204
65	0xbe40152c	-0.18758076
66	0xbdb9e480	-0.09076786
67	0xbe023d0c	-0.127186
68	0x3dbf82c3	0.09351113
69	0x3c7b659c	0.01534405
70	0x3d074433	0.033024024
71	0x3e2fbf77	0.17162882
72	0xbc6791fe	-0.014133928
73	0x3e39fc96	0.1816276
74	0xbe29e974	-0.16592962
75	0xbdda6e20	-0.10665536
76	0x3d157dda	0.036496975
77	0x3e3e425f	0.18580006
78	0xbdd3e0c6	-0.103456065
79	0x3b9993ab	0.004686793
80	0x3d2c9267	0.042131808
81	0x3e6b0ae4	0.22953373
82	0xbd7a1185	-0.061051864
83	0xbe9f104c	-0.3106712
84	0x3da8af9c	0.0823662
85	0x3d9f8b8c	0.07790288
86	0xbccabea9	-0.024749117
87	0xbcdcb561	-0.026941957
88	0xbd77b68e	-0.060476832
89	0x3e56325d	0.2091765
90	0xbc32dee9	-0.010917404
91	0x3c93830b	0.018006822
92	0x3e198f2a	0.14996019
93	0x3da23a19	0.079212375
94	0xbd7cd64a	-0.0617278
95	0x3d507c93	0.050900053
96	0x3ea43d41	0.32077983
97	0x3d2913db	0.0412787
98	0x3b1ca7b1	0.0023903663
99	0x3d8355b0	0.06412828
100	0x3e544a70	0.2073152
101	0xbe04c7ee	-0.12966892
102	0x3cd21260	0.025643528
103	0xbda24d0b	-0.07924851
104	0x3a9f8e60	0.0012173168
105	0x3dafaa98	0.0857746
106	0x3be43a77	0.0069649774
107	0xbe665604	-0.2249375
108	0x3d5263cc	0.051364705
109	0x3e5a1212	0.21295956
110	0x3acf40df	0.001581218
111	0x3cb94e50	0.02262035
112	0x3e302b9d	0.17204137
113	0xbe072ed1	-0.13201453
114	0xbd06f5c4	-0.032949224
115	0xbde3368e	-0.1109439
116	0xbd9c8c3f	-0.07643937
117	0xbe7c6779	-0.24648847
118	0x3e5d12c0	0.21589184
119	0xbe2415fe	-0.16024014
120	0xbd51c4b9	-0.051213
121	0x3c20b55f	0.009808867
122	0xbc66ebfb	-0.014094348
123	0xbbee41b4	-0.007271016
124	0xbc93ab03	-0.01802588
125	0x3e45ac8b	0.19304101
126	0xbccf8d8b	-0.025336048
127	0xbd9c684a	-0.07637079
128	0x3e01645a	0.12635937
129	0xbe89cca8	-0.26913953
130	0xbbb12382	-0.005405844
131	0x3d3fe685	0.0468507
132	0xbc0fd255	-0.008778174
133	0x3e90cdf4	0.2828213
134	0x3c97c287	0.018525375
135	0x3e0eddb2	0.13951758
136	0x3e57582a	0.21029726
137	0x3db45a4f	0.088062875
138	0x3e64c8fe	0.22342297
139	0x3ddb4223	0.10705974
140	0xbd9ccd4f	-0.07656347
141	0x3cc40135	0.023926357
142	0xbdc7a95b	-0.09749099
143	0xbe4a34c7	-0.19746695
144	0xbd82bb41	-0.06383372
145	0xbd0f5014	-0.034988478
146	0xbe07dff4	-0.13269025
147	0xbd59ea10	-0.053201735
148	0x3d6d6d21	0.0579654
149	0xbc86f1ac	-0.01647266
150	0x3eb46b68	0.35238194
151	0x3dc19357	0.09451931
152	0xbd8a9893	-0.067673825
153	0xbda7dec4	-0.08196786
154	0xbd4fb720	-0.05071175
155	0x3e3e9849	0.1861278
156	0x3d91ed46	0.071253344
157	0xbd065ec8	-0.032805234
158	0x3e4b0890	0.19827485
159	0x3df1d927	0.11808997
160	0xbcecf0c9	-0.028923409
161	0x3e144ede	0.1448321
162	0xbc3e9828	-0.011632957
163	0xbde46edb	-0.111539565
164	0x3e092818	0.13394201
165	0x3dce39c0	0.10069609
166	0xbd4a20c5	-0.049347658
167	0xbd0d99a9	-0.03457037
168	0xbe44151b	-0.19148676
169	0x3a47f611	0.00076279143
170	0xbd2b0219	-0.041750047
171	0x3e3cba0e	0.18430349
172	0x3e4fed1a	0.20305291
173	0xbd154447	-0.036442067
174	0xbe57a13f	-0.21057604
175	0xbda3f088	-0.08004862
176	0x3c4b474f	0.012407138
177	0xbe8124a6	-0.25223273
178	0xbdd214db	-0.10257884
179	0xbe3b9e92	-0.18322209
180	0xbd35b409	-0.044361148
181	0xbe376ba7	-0.1791216
182	0x3db6d5d5	0.08927504
183	0xbd8d803f	-0.069092266
184	0xb90f2246	-0.0001365031
185	0xbb7f20e4	-0.0038929516
186	0xbe5a4401	-0.21315004
187	0xbe1c3a72	-0.1525667
188	0xbd978708	-0.07398802
189	0xbd2c5e5a	-0.04208217
190	0xbd8c96cc	-0.068647
191	0x3dd358f3	0.103197
192	0xbe6a66db	-0.22890799
193	0xbd51dc0d	-0.051235247
194	0xbd2fff43	-0.042968046
195	0x3e0f1113	0.13971357
196	0x3b872c22	0.004125134
197	0xbe45aee3	-0.19304995
198	0xbd8ba5e6	-0.06818752
199	0xbe08b7d3	-0.13351373
200	0xbe0083f0	-0.1255033
201	0xbc9e8ab3	-0.019353246
202	0x3d123181	0.03569174
203	0xbc3c990a	-0.011511097
204	0xbdea0cfb	-0.11428257
205	0x3c17814f	0.009247138
206	0xbd0bcbaf	-0.034129795
207	0xbd7bae23	-0.061445367
208	0x3e610463	0.2197433
209	0xbcbc48a5	-0.022983858
210	0x3d196c39	0.037456725
211	0x3e73b36e	0.23798916
212	0x3d56ad0d	0.052411128
213	0xbd6b12a6	-0.05739083
214	0x3c56238c	0.0130699985
215	0xbc7676bd	-0.015042958
216	0xbe614511	-0.21999003
217	0x3e3f38bb	0.18673985
218	0xbc15cb35	-0.009142687
219	0xbdbd06ef	-0.09229838
220	0x3e3b2e94	0.18279487
221	0xbe050dca	-0.12993541
222	0x3e3ba542	0.1832476
223	0x3db65f1e	0.08904861
224	0x3dedf853	0.1161963
225	0x3e018715	0.12649186
226	0xbdeeddb3	-0.116633795
227	0xbdcbbad2	-0.099477425
228	0x3e3b0b6b	0.18266074
229	0x3e1f2a74	0.15543538
230	0x3d9f94ee	0.07792078
231	0x3d33706f	0.043808397
232	0xbdef29df	-0.11677908
233	0x3d89e8cb	0.06733855
234	0xbe705985	-0.23471649
235	0xbe248aed	-0.16068621
236	0xbd8a6e43	-0.06759312
237	0xbe356b67	-0.17716752
238	0xbddd6162	-0.1080959
239	0xbdffa0d1	-0.12481845
240	0x3d5c8630	0.05383891
241	0xbd0ea474	-0.034824803
242	0xbbeeadac	-0.007283887
243	0xbdbaf3f4	-0.091285616
244	0x3da03cbb	0.078240834
245	0xbe5e0f48	-0.21685517
246	0x3dff32ee	0.12460886
247	0xbd0f091e	-0.034920804
248	0xbd9caf5c	-0.07650635
249	0x3e1a1629	0.15047516
250	0xbcdc6120	-0.026901782
251	0xbde4a389	-0.11164004
252	0x3dbc04bc	0.091805905
253	0xbd444cd4	-0.04792483
254	0x3db6a660	0.08918452
255	0xbcda0e34	-0.0266181

mlp.mlp.fc_h.0.bias f4 [128]
0	0x00000000	0.0
1	0x00000000	0.0
2	0x00000000	0.0
3	0x00000000	0.0
4	0x00000000	0.0
5	0x00000000	0.0
6	0x00000000	0.0
7	0x00000000	0.0
8	0x00000000	0.0
9	0x00000000	0.0
10	0x00000000	0.0
11	0x00000000	0.0
12	0x00000000	0.0
13	0x00000000	0.0
14	0x00000000	0.0
15	0x00000000	0.0
16	0x00000000	0.0
17	0x00000000	0.0
18	0x00000000	0.0
19	0x00000000	0.0
20	0x00000000	0.0
21	0x00000000	0.0
22	0x00000000	0.0
23	0x00000000	0.0
24	0x00000000	0.0
25	0x00000000	0.0
26	0x00000000	0.0
27	0x00000000	0.0
28	0x00000000	0.0
29	0x00000000	0.0
30	0x00000000	0.0
31	0x00000000	0.0
32	0x00000000	0.0
33	0x00000000	0.0
34	0x00000000	0.0
35	0x00000000	0.0
36	0x00000000	0.0
37	0x00000000	0.0
38	0x00000000	0.0
39	0x00000000	0.0
40	0x00000000	0.0
41	0x00000000	0.0
42	0x00000000	0.0
43	0x00000000	0.0
44	0x00000000	0.0
45	0x00000000	0.0
46	0x00000000	0.0
47	0x00000000	0.0
48	0x00000000	0.0
49	0x00000000	0.0
50	0x00000000	0.0
51	0x00000000	0.0
52	0x00000000	0.0
53	0x00000000	0.0
54	0x00000000	0.0
55	0x00000000	0.0
56	0x00000000	0.0
57	0x00000000	0.0
58	0x00000000	0.0
59	0x00000000	0.0
60	0x00000000	0.0
61	0x00000000	0.0
62	0x00000000	0.0
63	0x00000000	0.0
64	0x00000000	0.0
65	0x00000000	0.0
66	0x00000000	0.0
67	0x00000000	0.0
68	0x00000000	0.0
69	0x00000000	0.0
70	0x00000000	0.0
71	0x00000000	0.0
72	0x00000000	0.0
73	0x00000000	0.0
74	0x00000000	0.0
75	0x00000000	0.0
76	0x00000000	0.0
77	0x00000000	0.0
78	0x00000000	0.0
79	0x00000000	0.0
80	0x00000000	0.0
81	0x00000000	0.0
82	0x00000000	0.0
83	0x00000000	0.0
84	0x00000000	0.0
85	0x00000000	0.0
86	0x00000000	0.0
87	0x00000000	0.0
88	0x00000000	0.0
89	0x00000000	0.0
90	0x00000000	0.0
91	0x00000000	0.0
92	0x00000000	0.0
93	0x00000000	0.0
94	0x00000000	0.0
95	0x00000000	0.0
96	0x00000000	0.0
97	0x00000000	0.0
98	0x00000000	0.0
99	0x00000000	0.0
100	0x00000000	0.0
101	0x00000000	0.0
102	0x00000000	0.0
103	0x00000000	0.0
104	0x00000000	0.0
105	0x00000000	0.0
106	0x00000000	0.0
107	0x00000000	0.0
108	0x00000000	0.0
109	0x00000000	0.0
110	0x00000000	0.0
111	0x00000000	0.0
112	0x00000000	0.0
113	0x00000000	0.0
114	0x00000000	0.0
115	0x00000000	0.0
116	0x00000000	0.0
117	0x00000000	0.0
118	0x00000000	0.0
119	0x00000000	0.0
120	0x00000000	0.0
121	0x00000000	0.0
122	0x00000000	0.0
123	0x00000000	0.0
124	0x00000000	0.0
125	0x00000000	0.0
126	0x00000000	0.0
127	0x00000000	0.0

mlp.mlp.fc_h.2.weight f4 [128]
0	0x3f800000	1.0
1	0x3f800000	1.0
2	0x3f800000	1.0
3	0x3f800000	1.0
4	0x3f800000	1.0
5	0x3f800000	1.0
6	0x3f800000	1.0
7	0x3f800000	1.0
8	0x3f800000	1.0
9	0x3f800000	1.0
10	0x3f800000	1.0
11	0x3f800000	1.0
12	0x3f800000	1.0
13	0x3f800000	1.0
14	0x3f800000	1.0
15	0x3f800000	1.0
16	0x3f800000	1.0
17	0x3f800000	1.0
18	0x3f800000	1.0
19	0x3f800000	1.0
20	0x3f800000	1.0
21	0x3f800000	1.0
22	0x3f800000	1.0
23	0x3f800000	1.0
24	0x3f800000	1.0
25	0x3f800000	1.0
26	0x3f800000	1.0
27	0x3f800000	1.0
28	0x3f800000	1.0
29	0x3f800000	1.0
30	0x3f800000	1.0
31	0x3f800000	1.0
32	0x3f800000	1.0
33	0x3f800000	1.0
34	0x3f800000	1.0
35	0x3f800000	1.0
36	0x3f800000	1.0
37	0x3f800000	1.0
38	0x3f800000	1.0
39	0x3f800000	1.0
40	0x3f800000	1.0
41	0x3f800000	1.0
42	0x3f800000	1.0
43	0x3f800000	1.0
44	0x3f800000	1.0
45	0x3f800000	1.0
46	0x3f800000	1.0
47	0x3f800000	1.0
48	0x3f800000	1.0
49	0x3f800000	1.0
50	0x3f800000	1.0
51	0x3f800000	1.0
52	0x3f800000	1.0
53	0x3f800000	1.0
54	0x3f800000	1.0
55	0x3f800000	1.0
56	0x3f800000	1.0
57	0x3f800000	1.0
58	0x3f800000	1.0
59	0x3f800000	1.0
60	0x3f800000	1.0
61	0x3f800000	1.0
62	0x3f800000	1.0
63	0x3f800000	1.0
64	0x3f800000	1.0
65	0x3f800000	1.0
66	0x3f800000	1.0
67	0x3f800000	1.0
68	0x3f800000	1.0
69	0x3f800000	1.0
70	0x3f800000	1.0
71	0x3f800000	1.0
72	0x3f800000	1.0
73	0x3f800000	1.0
74	0x3f800000	1.0
75	0x3f800000	1.0
76	0x3f800000	1.0
77	0x3f800000	1.0
78	0x3f800000	1.0
79	0x3f800000	1.0
80	0x3f800000	1.0
81	0x3f800000	1.0
82	0x3f800000	1.0
83	0x3f800000	1.0
84	0x3f800000	1.0
85	0x3f800000	1.0
86	0x3f800000	1.0
87	0x3f800000	1.0
88	0x3f800000	1.0
89	0x3f800000	1.0
90	0x3f800000	1.0
91	0x3f800000	1.0
92	0x3f800000	1.0
93	0x3f800000	1.0
94	0x3f800000	1.0
95	0x3f800000	1.0
96	0x3f800000	1.0
97	0x3f800000	1.0
98	0x3f800000	1.0
99	0x3f800000	1.0
100	0x3f800000	1.0
101	0x3f800000	1.0
102	0x3f800000	1.0
103	0x3f800000	1.0
104	0x3f800000	1.0
105	0x3f800000	1.0
106	0x3f800000	1.0
107	0x3f800000	1.0
108	0x3f800000	1.0
109	0x3f800000	1.0
110	0x3f800000	1.0
111	0x3f800000	1.0
112	0x3f800000	1.0
113	0x3f800000	1.0
114	0x3f800000	1.0
115	0x3f800000	1.0
116	0x3f800000	1.0
117	0x3f800000	1.0
118	0x3f800000	1.0
119	0x3f800000	1.0
120	0x3f800000	1.0
121	0x3f800000	1.0
122	0x3f800000	1.0
123	0x3f800000	1.0
124	0x3f800000	1.0
125	0x3f800000	1.0
126	0x3f800000	1.0
127	0x3f800000	1.0

mlp.mlp.fc_h.2.bias f4 [128]
0	0x00000000	0.0
1	0x00000000	0.0
2	0x00000000	0.0
3	0x00000000	0.0
4	0x00000000	0.0
5	0x00000000	0.0
6	0x00000000	0.0
7	0x00000000	0.0
8	0x00000000	0.0
9	0x00000000	0.0
10	0x00000000	0.0
11	0x00000000	0.0
12	0x00000000	0.0
13	0x00000000	0.0
14	0x00000000	0.0
15	0x00000000	0.0
16	0x00000000	0.0
17	0x00000000	0.0
18	0x00000000	0.0
19	0x00000000	0.0
20	0x00000000	0.0
21	0x00000000	0.0
22	0x00000000	0.0
23	0x00000000	0.0
24	0x00000000	0.0
25	0x00000000	0.0
26	0x00000000	0.0
27	0x00000000	0.0
28	0x00000000	0.0
29	0x00000000	0.0
30	0x00000000	0.0
31	0x00000000	0.0
32	0x00000000	0.0
33	0x00000000	0.0
34	0x00000000	0.0
35	0x00000000	0.0
36	0x00000000	0.0
37	0x00000000	0.0
38	0x00000000	0.0
39	0x00000000	0.0
40	0x00000000	0.0
41	0x00000000	0.0
42	0x00000000	0.0
43	0x00000000	0.0
44	0x00000000	0.0
45	0x00000000	0.0
46	0x00000000	0.0
47	0x00000000	0.0
48	0x00000000	0.0
49	0x00000000	0.0
50	0x00000000	0.0
51	0x00000000	0.0
52	0x00000000	0.0
53	0x00000000	0.0
54	0x00000000	0.0
55	0x00000000	0.0
56	0x00000000	0.0
57	0x00000000	0.0
58	0x00000000	0.0
59	0x00000000	0.0
60	0x00000000	0.0
61	0x00000000	0.0
62	0x00000000	0.0
63	0x00000000	0.0
64	0x00000000	0.0
65	0x00000000	0.0
66	0x00000000	0.0
67	0x00000000	0.0
68	0x00000000	0.0
69	0x00000000	0.0
70	0x00000000	0.0
71	0x00000000	0.0
72	0x00000000	0.0
73	0x00000000	0.0
74	0x00000000	0.0
75	0x00000000	0.0
76	0x00000000	0.0
77	0x00000000	0.0
78	0x00000000	0.0
79	0x00000000	0.0
80	0x00000000	0.0
81	0x00000000	0.0
82	0x00000000	0.0
83	0x00000000	0.0
84	0x00000000	0.0
85	0x00000000	0.0
86	0x00000000	0.0
87	0x00000000	0.0
88	0x00000000	0.0
89	0x00000000	0.0
90	0x00000000	0.0
91	0x00000000	0.0
92	0x00000000	0.0
93	0x00000000	0.0
94	0x00000000	0.0
95	0x00000000	0.0
96	0x00000000	0.0
97	0x00000000	0.0
98	0x00000000	0.0
99	0x00000000	0.0
100	0x00000000	0.0
101	0x00000000	0.0
102	0x00000000	0.0
103	0x00000000	0.0
104	0x00000000	0.0
105	0x00000000	0.0
106	0x00000000	0.0
107	0x00000000	0.0
108	0x00000000	0.0
109	0x00000000	0.0
110	0x00000000	0.0
111	0x00000000	0.0
112	0x00000000	0.0
113	0x00000000	0.0
114	0x00000000	0.0
115	0x00000000	0.0
116	0x00000000	0.0
117	0x00000000	0.0
118	0x00000000	0.0
119	0x00000000	0.0
120	0x00000000	0.0
121	0x00000000	0.0
122	0x00000000	0.0
123	0x00000000	0.0
124	0x00000000	0.0
125	0x00000000	0.0
126	0x00000000	0.0
127	0x00000000	0.0

mlp.mlp.fc2.0.0.weight f4 [128, 128]
0	0xbe02ddc7	-0.12779914
1	0x3e309745	0.17245205
2	0x3d2b1530	0.041768253
3	0x3e43c983	0.1911984
4	0x3c47bd81	0.012191177
5	0xbd525b20	-0.051356435
6	0x3e19df00	0.15026474
7	0x3e0a314c	0.13495368
8	0xbcc619a3	-0.024182146
9	0x3d826fed	0.063690044
10	0x3ce97838	0.028499708
11	0x3e023eba	0.12719241
12	0x3e2d340a	0.16914383
13	0x3d2b5776	0.041831456
14	0xbde24b44	-0.11049512
15	0x3c45ce6a	0.012073139
16	0x3d882ce5	0.06649188
17	0x3de7d7ab	0.11320432
18	0xbd676c06	-0.056499504
19	0x3d765b11	0.06014544
20	0x3dba87aa	0.09107907
21	0xbd166877	-0.03672072
22	0xbdbb671f	-0.09150528
23	0x3d9a3bba	0.07530923
24	0x3d8e4e80	0.069485664
25	0x3e4dc982	0.200964
26	0x3d75388b	0.059868377
27	0xbd6dad3c	-0.058026537
28	0xbe0ae4c3	-0.13563828
29	0x3e2df38a	0.16987434
30	0x3d2d220f	0.04226881
31	0xbd92d2cc	-0.071691126
32	0xbc81e141	-0.01585448
33	0xbaba8db3	-0.0014232903
34	0x3d1a0cef	0.03760999
35	0x3e114943	0.14188103
36	0xbc426b76	-0.011866441
37	0x3d4e0d03	0.050305378
38	0x3e22c696	0.15896067
39	0x3e221a62	0.15830377
40	0xbe1c1ec8	-0.15246117
41	0x3dc25a58	0.09489888
42	0xbe225164	-0.1585136
43	0x3ce9b5ea	0.028529126
44	0x3e8bd5b3	0.27311477
45	0xbd273aa3	-0.040827405
46	0x3c1b60e7	0.009483553
47	0x3d7cc21a	0.061708547
48	0xbe4e6624	-0.20156151
49	0xbcf10517	-0.029421372
50	0x3dcfe738	0.10151523
51	0xbd90da1a	-0.070728496
52	0x3e4624f8	0.1935004
53	0x3e08780e	0.13327047
54	0x3e5adc90	0.213732
55	0x3dbce6c4	0.092237025
56	0x3eb74786	0.35796756
57	0xbd681417	-0.056659784
58	0x3e5056a0	0.20345545
59	0xbe71bc89	-0.23607077
60	0xbd134123	-0.03595079
61	0x3e1da993	0.15396719
62	0x3dd75401	0.10514069
63	0x3c64c86c	0.0139638
64	0x3e43e3b1	0.19129826
65	0xbe35b2e4	-0.17744023
66	0xbda760fb	-0.081727944
67	0xbdeee3b6	-0.11664526
68	0x3daa55c9	0.083171435
69	0x3cd40fec	0.025886498
70	0x3cbdadf8	0.023154244
71	0x3e268d94	0.16264945
72	0xbcc15eeb	-0.02360483
73	0x3e44ba66	0.1921173
74	0xbe1f1f36	-0.1553925
75	0xbdef2810	-0.11677563
76	0x3d4085e7	0.0470027
77	0x3e341243	0.17585091
78	0xbde947ac	-0.113906235
79	0x3c72f814	0.014829654
80	0x3d0260b9	0.031830523
81	0x3e76712a	0.24066606
82	0xbd4f16eb	-0.050558966
83	0xbe99ad68	-0.3001511
84	0x3da48297	0.080327205
85	0x3db50bb8	0.08840126
86	0xbd0cf952	-0.034417458
87	0xbc86de35	-0.016463378
88	0xbd90f0c7	-0.07077175
89	0x3e4be09b	0.19909899
90	0xb9d7b18f	-0.00041140287
91	0x3ce9d121	0.028542103
92	0x3e0dcf30	0.13848567
93	0x3db95241	0.09048892
94	0xbd8f2106	-0.069887206
95	0x3d7b9a16	0.061426245
96	0x3ea9b274	0.3314396
97	0x3d42f515	0.04759701
98	0x3c41cf9b	0.011829282
99	0x3d598f12	0.053114958
100	0x3e4815d7	0.19539581
101	0xbe0f6b58	-0.14005792
102	0x3d140d02	0.036145218
103	0xbd8cd798	-0.06877059
104	0x3c3f9bf1	0.011694894
105	0x3dca11bb	0.09866663
106	0xbb3cb49a	-0.002879417
107	0xbe5b83e6	-0.21437034
108	0x3d7d5469	0.061848078
109	0x3e50e927	0.2040144
110	0x3c24d296	0.010059973
111	0x3cb50762	0.022098247
112	0x3e3abbb8	0.18235672
113	0xbdf8e2e1	-0.12152649
114	0xbccc4dc2	-0.024939422
115	0xbdcdbeae	-0.10046135
116	0xbdb2a636	-0.087231085
117	0xbe71fc55	-0.23631413
118	0x3e5361c8	0.2064277
119	0xbe2e78d8	-0.17038286
120	0xbd273a3b	-0.040827017
121	0x3ca69d72	0.020338748
122	0xbb6b79f5	-0.0035930846
123	0xbc890e03	-0.016730314
124	0xbccf265b	-0.025286844
125	0x3e3c2b4e	0.18375894
126	0xbd11eaf2	-0.035624452
127	0xbd894544	-0.067026645
128	0x3e0c3f3a	0.13695994
129	0xbe87bd4b	-0.26511607
130	0xbc94cc83	-0.018163925
131	0x3d0f2953	0.03495152
132	0xbca043ed	-0.01956364
133	0x3e95ec0b	0.2928165
134	0x3bb82731	0.0056199064
135	0x3e030ab3	0.1279705
136	0x3e656e57	0.22405373
137	0x3dc4dd54	0.096125275
138	0x3e5c4220	0.215096
139	0x3db8559f	0.09000706
140	0xbdb4ad60	-0.08822131
141	0x3c49c2c3	0.012314501
142	0xbda5f388	-0.081030905
143	0xbe4357a3	-0.190764
144	0xbd5641d1	-0.05230886
145	0xbd3eb336	-0.046557628
146	0xbe13d0bd	-0.14435096
147	0xbd076416	-0.033054434
148	0x3d88544c	0.06656703
149	0xbd103134	-0.035203174
150	0x3eb1d871	0.34735444
151	0x3da9e541	0.0829568
152	0xbda1b9ca	-0.078967646
153	0xbdbfcc42	-0.09365131
154	0xbd78cee8	-0.060744196
155	0x3e4c83ba	0.19972125
156	0x3d74390f	0.059624728
157	0xbd2bdf95	-0.04196127
158	0x3e3c3312	0.18378857
159	0x3dd7b603	0.10532763
160	0xbcbfeedf	-0.023429332
161	0x3e03ad69	0.1285912
162	0x3b8e62fd	0.0043452964
163	0xbdbc8b2c	-0.092062324
164	0x3e049b13	0.12949781
165	0x3dc1c70d	0.09461794
166	0xbd1c9a7a	-0.038233258
167	0xbd375506	-0.04475882
168	0xbe4fbc33	-0.20286636
169	0x3c85e626	0.016345095
170	0xbd6d73dc	-0.05797182
171	0x3e32d942	0.1746569
172	0x3e42bfac	0.1901843
173	0xbd223926	-0.039605282
174	0xbe6371fc	-0.2221145
175	0xbdbbccec	-0.09169945
176	0x3c98cb9b	0.018651774
177	0xbe871ab1	-0.2638755
178	0xbdea00a6	-0.11425905
179	0xbe47cfd4	-0.19512874
180	0xbd64b34c	-0.055835053
181	0xbe3cabe2	-0.18424943
182	0x3d8da1b0	0.06915605
183	0xbd9e7a2e	-0.07738148
184	0xbc2d8627	-0.010591066
185	0xbc7e47ff	-0.015520095
186	0xbe579d71	-0.21056153
187	0xbe1ae3be	-0.15125939
188	0xbdb3a388	-0.087714255
189	0xbd5bf391	-0.05369908
190	0xbda47f49	-0.0803209
191	0x3dbe870d	0.09303103
192	0xbe79e0c3	-0.24402146
193	0xbd0d1d8b	-0.034452002
194	0xbd5e7fd7	-0.054321136
195	0x3e031b12	0.12803295
196	0x3c61b6b8	0.013776474
197	0xbe519b54	-0.20469409
198	0xbd8329f1	-0.06404484
199	0xbe21e47d	-0.15809818
200	0xbde99609	-0.1140557
201	0xbcfcac6f	-0.030843941
202	0x3cc5718f	0.024102
203	0xbb2ce739	-0.0026382937
204	0xbe00f831	-0.12594678
205	0x3c93f357	0.01806037
206	0xbc906936	-0.017628293
207	0xbd29be28	-0.041441113
208	0x3e6abe9b	0.22924273
209	0xbd151633	-0.036398124
210	0x3cd3eaec	0.025868855
211	0x3e6c4258	0.23072183
212	0x3d3110c8	0.043228894
213	0xbd8d06b5	-0.06886045
214	0x3cd5389d	0.026027972
215	0xbcda2719	-0.026629971
216	0xbe5638d6	-0.20920119
217	0x3e44a203	0.19202428
218	0xbbb1e743	-0.00542918
219	0xbdd51c2a	-0.104057625
220	0x3e419861	0.18905784
221	0xbe0d7624	-0.13814598
222	0x3e2b9f05	0.1675988
223	0x3d9e88e7	0.07740956
224	0x3dfeecc5	0.12447504
225	0x3dd1e63d	0.102489926
226	0xbe01e492	-0.12684849
227	0xbdad2e32	-0.08456077
228	0x3e4d3cbf	0.20042704
229	0x3e2a0762	0.16604379
230	0x3d8757de	0.06608556
231	0x3d03ba5a	0.03216014
232	0xbe037752	-0.12838486
233	0x3db08ba4	0.08620384
234	0xbe6b3dfe	-0.22972867
235	0xbe3085d3	-0.1723855
236	0xbd8ccd20	-0.06875062
237	0xbe3967bb	-0.18105976
238	0xbdeb2256	-0.114811584
239	0xbdddb53a	-0.10825582
240	0x3d8e01aa	0.06933911
241	0xbc9b5a73	-0.018964028
242	0x3bf627f1	0.0075120856
243	0xbdd290f9	-0.102815576
244	0x3dbab4ec	0.09116539
245	0xbe6936f2	-0.22774866
246	0x3dd99cf1	0.10625637
247	0xbcc001b6	-0.023438316
248	0xbdb44e59	-0.08804006
249	0x3e0e356d	0.13887568
250	0xbd162208	-0.03665355
251	0xbdf7d8ef	-0.12101924
252	0x3dd90bd4	0.10597959
253	0xbd842851	-0.06453002
254	0x3dc65ad2	0.09685291
255	0xba8e345b	-0.0010849343

mlp.mlp.fc2.0.0.bias f4 [128]
0	0xbc2ec4fd	-0.010667083
1	0x3c40fbb7	0.0117787635
2	0xbc364830	-0.011125609
3	0xbc5ec5e8	-0.013596989
4	0xbc0b921e	-0.008518724
5	0xbbddef27	-0.006772894
6	0x3c289612	0.010289686
7	0x00000000	0.0
8	0xbc375820	-0.011190444
9	0x3b497f8d	0.0030746192
10	0xbc750ed3	-0.014957148
11	0xbc83a3f3	-0.016069388
12	0xbb04eba8	-0.0020282064
13	0x3c9fb0ff	0.019493578
14	0xbbf7d816	-0.0075636012
15	0x3c549e55	0.012977202
16	0xbc334a25	-0.01094297
17	0xbc44d850	-0.012014464
18	0xbad381fa	-0.0016136758
19	0x3c996e9f	0.018729506
20	0xbbbb587e	-0.005717336
21	0x3c68d856	0.014211735
22	0x3c52d3c1	0.012867869
23	0xbb9b0af5	-0.004731531
24	0xbc338388	-0.010956652
25	0xbc21cf4e	-0.009876085
26	0xbbe82cc8	-0.0070854165
27	0x3add95da	0.0016905621
28	0xbbc4d8f5	-0.0060073086
29	0xbc283be0	-0.010268182
30	0x3c6d1082	0.014469268
31	0x00000000	0.0
32	0x3b845ea9	0.0040396047
33	0x3c80ad9f	0.015707789
34	0xbc6dcfc7	-0.01451487
35	0xbc45ce8f	-0.012073173
36	0xbc28fdad	-0.010314387
37	0xbbe21a62	-0.0069001177
38	0x3c85ea0a	0.01634695
39	0xbc1f687d	-0.009729502
40	0xbc15a877	-0.009134403
41	0xbc08466a	-0.008317569
42	0x3c2014d5	0.009770592
43	0x3be5d6b2	0.007014119
44	0xbc6f5cad	-0.014609498
45	0xbbe631fc	-0.0070250016
46	0xbc23b4e7	-0.009991861
47	0xb97a291f	-0.00023857177
48	0xbb8bdba5	-0.004268127
49	0x3c551beb	0.013007144
50	0xbc88aa75	-0.016682843
51	0x00000000	0.0
52	0x3b13c44a	0.0022547417
53	0x3a951d01	0.0011376442
54	0x3b93a4be	0.004505723
55	0xbc4b8f3f	-0.012424289
56	0x3c343e72	0.011001216
57	0xbbc6cca0	-0.0060668737
58	0xbc8cf8dd	-0.017208511
59	0xbc20c4b4	-0.009812523
60	0xbc247cec	-0.010039549
61	0xbc28a487	-0.010293133
62	0xbca72994	-0.020405568
63	0xbbc9b06f	-0.0061550657
64	0xbc57e1b0	-0.013176367
65	0xbb1f1b61	-0.0024277794
66	0xbc37fd21	-0.011229784
67	0xbca0b6f8	-0.019618496
68	0xbc4e0d70	-0.012576446
69	0xbc0da395	-0.008644958
70	0xbc967fea	-0.018371541
71	0x3c4d96bb	0.012548144
72	0xbbb4c3d6	-0.0055165095
73	0x3b31e20a	0.0027142786
74	0xbba71f5d	-0.0051001743
75	0xbc11427f	-0.008865952
76	0xbc5b6cbb	-0.013392623
77	0x00000000	0.0
78	0xbc7b4ba6	-0.01533786
79	0x3c010331	0.007874296
80	0xbc919e88	-0.017775789
81	0xbbf89540	-0.0075861514
82	0xbbe3f658	-0.0069568567
83	0x3c04422f	0.00807242
84	0x3b41bf3a	0.0029563443
85	0x3be7c67d	0.007073222
86	0x3baf628c	0.005352324
87	0x3b685bc1	0.003545508
88	0xbc30b3d8	-0.010785066
89	0xbbcdb1d6	-0.006277303
90	0xbbb5b2e0	-0.005545005
91	0xbc0b1643	-0.008489194
92	0xbc06577d	-0.00819957
93	0xbbe9ed78	-0.007138904
94	0x00000000	0.0
95	0x3b1259a4	0.0022331262
96	0xbbef0327	-0.007294077
97	0xbba49d05	-0.005023601
98	0xbad90451	-0.0016557073
99	0x3c801424	0.015634604
100	0x3c87ee2b	0.01659306
101	0x3ba2f7c1	0.004973382
102	0xbc3aad91	-0.0113939205
103	0xbbca143c	-0.006166963
104	0x3bd71a5e	0.0065644225
105	0xbb70c447	-0.0036738084
106	0xbc974efd	-0.018470282
107	0x3c8afd33	0.016966438
108	0xbc8d4bc1	-0.017248036
109	0xbc28232a	-0.01026229
110	0xbc41c7cb	-0.0118274195
111	0x3b6f8044	0.0036544958
112	0x3c971f7f	0.018447636
113	0xbb3144ad	-0.002704899
114	0xbbafc415	-0.005363951
115	0xbb4eec88	-0.003157409
116	0xbbefa836	-0.0073137535
117	0xbb26ac79	-0.0025432392
118	0x3c80e0f3	0.015732264
119	0xbc1adcf4	-0.009452093
120	0xbbf46b14	-0.007459054
121	0x3b9c936c	0.0047783162
122	0xbbd61d61	-0.006534264
123	0xbbd2f042	-0.0064373324
124	0xbc906ca0	-0.017629921
125	0x3c57a7ee	0.013162596
126	0xbb7b10c6	-0.0038309558
127	0xbbf1c808	-0.007378582

mlp.mlp.fc2.0.2.weight f4 [128]
0	0x3f816b08	1.0110788
1	0x3f81f29e	1.0152166
2	0x3f81a531	1.0128537
3	0x3f81ab66	1.0130432
4	0x3f8203d1	1.0157415
5	0x3f82051f	1.0157813
6	0x3f81d80c	1.0144057
7	0x3f81c88b	1.0139326
8	0x3f820c57	1.0160016
9	0x3f820c22	1.0159953
10	0x3f81d603	1.0143436
11	0x3f81c623	1.0138592
12	0x3f8212a8	1.0161943
13	0x3f80fd0a	1.0077221
14	0x3f8207d8	1.0158644
15	0x3f81f05f	1.015148
16	0x3f81a4b7	1.0128392
17	0x3f820680	1.0158234
18	0x3f7d9963	0.99062175
19	0x3f815660	1.0104485
20	0x3f81a3ae	1.0128076
21	0x3f81f711	1.0153524
22	0x3f81e6e3	1.0148586
23	0x3f81e1f0	1.0147076
24	0x3f816ac9	1.0110713
25	0x3f81e3df	1.0147666
26	0x3f82082a	1.0158741
27	0x3f815987	1.0105447
28	0x3f815c5e	1.0106313
29	0x3f82226f	1.0166758
30	0x3f81e413	1.0147728
31	0x3f820671	1.0158216
32	0x3f81fecf	1.0155886
33	0x3f81d8af	1.0144252
34	0x3f81f35e	1.0152395
35	0x3f81fca4	1.0155225
36	0x3f81e30d	1.0147415
37	0x3f81b640	1.0133743
38	0x3f8140aa	1.0097859
39	0x3f81e353	1.0147499
40	0x3f81b07f	1.0131987
41	0x3f811640	1.0084915
42	0x3f81fd53	1.0155433
43	0x3f822d92	1.0170157
44	0x3f820344	1.0157247
45	0x3f81e3fd	1.0147702
46	0x3f8200c8	1.0156488
47	0x3f825278	1.0181417
48	0x3f824dae	1.0179956
49	0x3f81abf9	1.0130607
50	0x3f819440	1.0123367
51	0x3f81af80	1.0131683
52	0x3f8219bb	1.0164102
53	0x3f8250bd	1.0180889
54	0x3f81c674	1.0138688
55	0x3f81f1a9	1.0151874
56	0x3f81e042	1.0146563
57	0x3f80a77e	1.0051115
58	0x3f8204c2	1.0157702
59	0x3f81c690	1.0138721
60	0x3f81aa2a	1.0130055
61	0x3f828662	1.019726
62	0x3f81bd5f	1.0135916
63	0x3f81c2c6	1.0137565
64	0x3f81a04f	1.0127047
65	0x3f820e9f	1.0160712
66	0x3f820043	1.015633
67	0x3f812560	1.0089531
68	0x3f80caf5	1.0061938
69	0x3f8216fc	1.0163264
70	0x3f8202b5	1.0157076
71	0x3f7febe3	0.9996931
72	0x3f81737e	1.011337
73	0x3f824210	1.0176411
74	0x3f82090f	1.0159014
75	0x3f81aa2a	1.0130055
76	0x3f820079	1.0156394
77	0x3f820ed9	1.0160781
78	0x3f820de2	1.0160487
79	0x3f820cd8	1.016017
80	0x3f81feb4	1.0155854
81	0x3f81d484	1.014298
82	0x3f8210dd	1.0161396
83	0x3f8204fd	1.0157772
84	0x3f818fd7	1.0122021
85	0x3f8209cd	1.0159241
86	0x3f821d9f	1.016529
87	0x3f81df0e	1.0146196
88	0x3f81c1a2	1.0137217
89	0x3f81e73a	1.014869
90	0x3f81dde0	1.0145836
91	0x3f815cbb	1.0106424
92	0x3f81cf43	1.0141376
93	0x3f81e1c2	1.0147021
94	0x3f8206a2	1.0158274
95	0x3f825982	1.0183566
96	0x3f81cbfe	1.0140378
97	0x3f820c69	1.0160037
98	0x3f822885	1.0168616
99	0x3f7e201f	0.9926776
100	0x3f817ed3	1.0116829
101	0x3f8244fa	1.01773
102	0x3f81f591	1.0153066
103	0x3f810eaa	1.00826
104	0x3f822bcb	1.0169615
105	0x3f820de6	1.0160491
106	0x3f81cf12	1.0141318
107	0x3f8192c9	1.012292
108	0x3f81cbe4	1.0140347
109	0x3f8209d3	1.0159248
110	0x3f81da44	1.0144734
111	0x3f81d1c2	1.0142138
112	0x3f8124fd	1.0089413
113	0x3f81d95e	1.014446
114	0x3f8243e1	1.0176965
115	0x3f81c9ec	1.0139747
116	0x3f816759	1.0109664
117	0x3f81d0b1	1.0141813
118	0x3f81adb3	1.0131134
119	0x3f81bfcb	1.0136656
120	0x3f819ca7	1.0125932
121	0x3f81ff91	1.0156118
122	0x3f81d677	1.0143574
123	0x3f821008	1.0161142
124	0x3f81ab45	1.0130392
125	0x3f819697	1.0124081
126	0x3f81bfc7	1.0136651
127	0x3f818cce	1.0121095

mlp.mlp.fc2.0.2.bias f4 [128]
0	0xbc3b653d	-0.011437711
1	0x3c7f1827	0.015569723
2	0xbc588b3b	-0.013216789
3	0xbc566901	-0.013086558
4	0xbc7f3e50	-0.015578821
5	0xbc623578	-0.013806693
6	0x3c681be0	0.014166802
7	0xbc611d75	-0.013739933
8	0xbc828172	-0.015930865
9	0x3c837d18	0.01605086
10	0xbc68f024	-0.01421741
11	0xbc62eb4c	-0.013850044
12	0xbc8337fb	-0.016017905
13	0x3c494820	0.012285262
14	0xbc814746	-0.015781056
15	0x3c7f7894	0.015592713
16	0xbc56e0ba	-0.013115102
17	0xbc803598	-0.015650555
18	0xbba5a230	-0.0050547346
19	0x3c7735ee	0.015088541
20	0xbc4e5f2b	-0.012595932
21	0x3c696a8a	0.014246592
22	0x3c7f5067	0.015583134
23	0xbc6cb331	-0.014447019
24	0xbc48d7fd	-0.012258527
25	0xbc716202	-0.01473284
26	0xbc80e3ed	-0.015733683
27	0x3c893051	0.016746672
28	0x3c3c04e6	0.011475777
29	0xbc82bc9b	-0.015959075
30	0x3c819c6a	0.015821654
31	0xbc8035bb	-0.01565062
32	0x3c787fef	0.0151672205
33	0x3c7e2a3d	0.015513
34	0xbc7bf325	-0.015377794
35	0xbc7cb22b	-0.015423338
36	0xbc641a3c	-0.01392227
37	0xbc586eae	-0.013209982
38	0x3c405dd6	0.011741122
39	0xbc6df771	-0.014524327
40	0xbc5633b2	-0.013073849
41	0xbc473c42	-0.012160363
42	0x3c83b498	0.016077325
43	0x3c7f573e	0.015584765
44	0xbc7ffd54	-0.015624363
45	0xbc71a7e2	-0.014749499
46	0xbc7ded73	-0.015498507
47	0x3c8100f4	0.015747525
48	0xbc6ed38c	-0.014576804
49	0x3c5fcbed	0.01365946
50	0xbc4a8c15	-0.0123625
51	0xbc543c1e	-0.012953786
52	0x3c83807f	0.016052483
53	0x3c808cdc	0.015692167
54	0xbc4cd444	-0.01250178
55	0xbc809f75	-0.015701035
56	0x3c8037f5	0.015651682
57	0x3c5f5de8	0.013633229
58	0xbc80b912	-0.015713248
59	0xbc611c10	-0.013739601
60	0xbc527f96	-0.012847802
61	0x3c7433fb	0.014904971
62	0xbc61a060	-0.013771147
63	0xbc5e95f5	-0.013585557
64	0xbc5c4fec	-0.013446789
65	0xbc824560	-0.015902221
66	0xbc7d92e8	-0.01547692
67	0xbc7532d3	-0.014965731
68	0xbc6bd5fc	-0.01439428
69	0x3c80c026	0.015716624
70	0xbc80c9a4	-0.01572115
71	0x3b8662e7	0.0041011455
72	0xbc6d8745	-0.014497583
73	0x3c82c171	0.01596138
74	0xbc80e6ff	-0.015735148
75	0xbc52978a	-0.012853513
76	0xbc8028dc	-0.015644483
77	0xbc824b8d	-0.015905166
78	0xbc823fce	-0.015899565
79	0x3c81980a	0.015819568
80	0xbc8053fd	-0.015665049
81	0xbc671a8f	-0.014105453
82	0xbc83609b	-0.016037276
83	0x3c8322ab	0.016007742
84	0x3c3f475c	0.011674728
85	0x3c6da7cd	0.014505339
86	0x3c7f723c	0.0155912
87	0xbc548601	-0.012971402
88	0xbc60c72e	-0.013719363
89	0x3c6b4055	0.0143586
90	0xbc6c0ad0	-0.014406875
91	0xbc2b7400	-0.010464668
92	0xbc651eaa	-0.013984362
93	0xbc6a9300	-0.014317274
94	0xbc803988	-0.015652433
95	0x3c84b122	0.016197745
96	0xbc62e0da	-0.013847554
97	0xbc825a42	-0.015912179
98	0x3c830804	0.015995033
99	0xbc9d7522	-0.019220892
100	0x3c58296c	0.0131934695
101	0x3c84a08c	0.016189836
102	0xbc7fc933	-0.0156119345
103	0xbc0db40e	-0.008648885
104	0x3c6ea816	0.014566442
105	0xbc820f09	-0.01587631
106	0xbc661742	-0.014043631
107	0x3c72e509	0.014825114
108	0xbc650466	-0.013978099
109	0xbc813a4a	-0.015774865
110	0xbc6b0631	-0.014344738
111	0x3c6fd859	0.014638984
112	0x3c443d18	0.0119774565
113	0xbc697b1c	-0.014250543
114	0x3c6d85cd	0.014497233
115	0xbc6f2a3e	-0.014597474
116	0xbc52d704	-0.0128686465
117	0xbc650d97	-0.013980291
118	0x3c800d14	0.015631236
119	0xbc5e7964	-0.0135787465
120	0xbc4c43bb	-0.01246732
121	0x3c7e9e32	0.015540646
122	0xbc686488	-0.014184125
123	0xbc829e10	-0.01594451
124	0xbc6abbfc	-0.0143270455
125	0x3c5c84e1	0.013459415
126	0xbc5c8052	-0.013458328
127	0xbc436bb5	-0.011927535
